fitsnap_fits/fitsnap_examples/Ta_PyTorch_NN/FitTorch_Pytorch.pt (torch, 61929 bytes, 8 tensors)

weight f8 [30, 30]
0.010162772610783577 0.015137474052608013 -0.02298116870224476 0.022696735337376595 -0.022848961874842644 -0.025661781430244446 -0.02738511562347412 0.027579763904213905
0.0023922163527458906 -0.00133082817774266 -0.020951010286808014 0.00047172693302854896 0.0008747848332859576 0.01783319003880024 0.013668687082827091 -0.0004030113632325083
0.010159839875996113 0.025304358452558517 -0.015750901773571968 0.022437425330281258 0.007128195371478796 0.006307581905275583 -0.017170226201415062 0.02157946676015854
0.012492178939282894 0.011660647578537464 0.0014582426520064473 0.00689629977568984 -0.005917220842093229 0.0010042712092399597 -0.01428247895091772 0.5272387862205505
0.006597552448511124 -0.00631367415189743 0.028161128982901573 0.013294393196702003 0.02203201688826084 -0.021164877340197563 0.01490597240626812 -0.011717281304299831
-0.016544343903660774 -0.014137176796793938 -0.015780963003635406 0.0024627968668937683 0.02699827402830124 0.026174036785960197 0.05998582765460014 -0.0020179494749754667
-0.0009268699213862419 0.00411119032651186 -0.013982752338051796 0.02843048796057701 -0.005427322816103697 -0.032919831573963165 0.006673499010503292 0.002781619317829609
-0.019240787252783775 0.028317350894212723 -0.014977559447288513 -0.004582956898957491 -0.002647427376359701 -0.013809378258883953 2.4368720054626465 -0.020284254103899002
0.01694331131875515 0.022691672667860985 0.02889479324221611 -0.024388890713453293 -0.008012549951672554 0.009700817056000233 0.02052420936524868 0.0025980903301388025
0.004072635434567928 -0.02240910567343235 -0.020947623997926712 -0.00895912479609251 -0.011671186424791813 -0.025550372898578644 0.009534147568047047 -0.025195308029651642
-0.009618256241083145 -0.016334470361471176 0.013985870406031609 -0.012103304266929626 -0.01814909093081951 -0.013492687605321407 -0.00250793038867414 -0.004259980283677578
-0.00024204327201005071 0.002959841163828969 0.0014528202591463923 0.010584023781120777 -0.031496305018663406 0.3570058345794678 -0.01350247859954834 -0.02584778517484665
-0.041036106646060944 0.02736053057014942 0.009474539197981358 -0.010004273615777493 -0.021317191421985626 -0.00539386086165905 -0.007026429753750563 0.024327019229531288
0.027347903698682785 0.01318551879376173 0.019134238362312317 0.026235952973365784 -0.010194356553256512 0.025883162394165993 0.009198995307087898 0.019544029608368874
-0.012692407704889774 0.009145135059952736 0.019204989075660706 0.016602084040641785 0.0024671617429703474 0.009533227421343327 0.0017367013497278094 -0.0035573479253798723
-0.00286543695256114 -0.013933707028627396 0.02786833979189396 -0.02480834722518921 0.868058443069458 0.030027391389012337 0.03772532939910889 -0.03311367332935333
-0.002915450371801853 0.0042678299359977245 0.02314702607691288 -0.001087197451852262 -0.00030951734515838325 -0.02044898271560669 -0.014239759184420109 -0.0038660888094455004
-0.01059779617935419 -0.02502882294356823 0.01551932655274868 -0.023408787325024605 -0.006945841480046511 -0.008490381762385368 0.016927577555179596 -0.01855461299419403
-0.015238955616950989 -0.013183464296162128 -0.003910450730472803 -0.008501368574798107 0.0034630936570465565 0.0004962616367265582 0.0039903405122458935 0.030058657750487328
-0.035283613950014114 0.0033460597041994333 -0.017885515466332436 0.5357218384742737 -0.011983119882643223 -0.0014376405160874128 0.00472888583317399 -0.01137477159500122
-0.0028126726392656565 0.010517199523746967 -7.649974577361718e-05 0.01509338989853859 -0.01359664648771286 -0.0018531669629737735 -0.035122647881507874 0.02055472694337368
0.04351191595196724 0.022234290838241577 0.02414865419268608 -0.009234422817826271 0.0008158831624314189 0.00498922448605299 0.01109467912465334 0.0013203544076532125
0.013722158968448639 -0.022390294820070267 0.04900505021214485 -0.0074084107764065266 0.012097029946744442 0.011135056614875793 0.008295172825455666 -0.021921254694461823
-0.017959656193852425 0.007604013197124004 0.6016333103179932 -0.01173100434243679 -0.01676948554813862 0.007387868594378233 0.010493390262126923 0.021200893446803093
0.01572902500629425 -0.008485367521643639 -0.05012258142232895 -0.021434711292386055 -0.04729941487312317 -0.015523646026849747 0.024342143908143044 -0.016231004148721695
0.005828749854117632 -0.034819237887859344 0.0039525339379906654 -0.005269189365208149 -0.01219275314360857 -0.02167949452996254 0.014083446003496647 -0.023500781506299973
0.01701967418193817 0.0018942939350381494 -0.0020008159335702658 -0.01752435602247715 0.019007518887519836 -0.01835237257182598 0.020415684208273888 0.012637400068342686
0.01726306974887848 0.06089513376355171 -0.006339584942907095 0.008969428949058056 -0.004708171356469393 0.014132652431726456 -0.0003763694840017706 -0.01414276473224163
-0.01741965487599373 -0.012814497575163841 0.006315138656646013 -0.022546501830220222 -0.013818574137985706 -0.018280772492289543 -0.019174903631210327 0.004265435039997101
-0.009851682931184769 -0.019445914775133133 -0.021457865834236145 -0.019657526165246964 -0.005973621271550655 -0.0033303971868008375 -0.018429653719067574 0.009076474234461784
0.01067190058529377 0.021880989894270897 -0.004738318268209696 -0.011694230139255524 -0.02301829867064953 -0.014528696425259113 0.009274528361856937 -0.003527403809130192
0.6918931007385254 0.0006512481486424804 -0.002029462018981576 0.01704222895205021 0.009877444244921207 0.005654195789247751 -0.027467679232358932 -0.010308281518518925
00000000: 0000 0040 38d0 843f 0000 0060 6500 8f3f
00000010: 0000 0020 6088 97bf 0000 0020 d03d 973f
00000020: 0000 00e0 b765 97bf 0000 0000 1547 9abf
00000030: 0000 0000 d80a 9cbf 0000 00a0 de3d 9c3f
00000040: 0000 0060 d798 633f 0000 00e0 e5cd 55bf
00000050: 0000 0080 2e74 95bf 0000 00c0 43ea 3e3f
00000060: 0000 0020 3aaa 4c3f 0000 0020 dd42 923f
00000070: 0000 0020 54fe 8b3f 0000 00a0 6869 3abf
00000080: 0000 00a0 aece 843f 0000 00c0 62e9 993f
00000090: 0000 0020 0121 90bf 0000 0020 d6f9 963f
000000a0: 0000 0060 7432 7d3f 0000 00a0 fad5 793f
000000b0: 0000 0060 1295 91bf 0000 0080 ed18 963f
000000c0: 0000 00e0 7f95 893f 0000 00a0 89e1 873f
000000d0: 0000 0020 50e4 573f 0000 0060 4b3f 7c3f
000000e0: 0000 00e0 a73c 78bf 0000 0000 3874 503f
000000f0: 0000 00e0 2140 8dbf 0000 00e0 23df e03f
00000100: 0000 0000 0906 7b3f 0000 0000 5edc 79bf
00000110: 0000 0060 45d6 9c3f 0000 0040 173a 8b3f
00000120: 0000 00a0 8f8f 963f 0000 00e0 3eac 95bf
00000130: 0000 00c0 0587 8e3f 0000 00e0 3aff 87bf
00000140: 0000 0020 00f1 90bf 0000 00c0 f3f3 8cbf
00000150: 0000 0080 e228 90bf 0000 0000 dc2c 643f
00000160: 0000 0080 6fa5 9b3f 0000 00e0 5dcd 9a3f
00000170: 0000 0060 76b6 ae3f 0000 0060 f287 60bf
00000180: 0000 0000 265f 4ebf 0000 0040 e5d6 703f
00000190: 0000 0040 fda2 8cbf 0000 00c0 e11c 9d3f
000001a0: 0000 00e0 f53a 76bf 0000 0040 deda a0bf
000001b0: 0000 00c0 ab55 7b3f 0000 0080 7ac9 663f
000001c0: 0000 0060 dbb3 93bf 0000 0040 39ff 9c3f
000001d0: 0000 0000 8eac 8ebf 0000 0020 94c5 72bf
000001e0: 0000 00c0 0eb0 65bf 0000 0060 1748 8cbf
000001f0: 0000 00c0 b67e 0340 0000 0040 65c5 94bf
00000200: 0000 0060 9659 913f 0000 0060 7c3c 973f
00000210: 0000 00c0 9896 9d3f 0000 00c0 66f9 98bf
00000220: 0000 0040 e268 80bf 0000 00a0 05de 833f
00000230: 0000 0060 4c04 953f 0000 0020 9748 653f
00000240: 0000 00c0 77ae 703f 0000 00a0 69f2 96bf
00000250: 0000 0040 4b73 95bf 0000 0060 2959 82bf
00000260: 0000 0020 10e7 87bf 0000 0080 e029 9abf
00000270: 0000 00a0 a386 833f 0000 0080 cccc 99bf
00000280: 0000 0080 bcb2 83bf 0000 00c0 fbb9 90bf
00000290: 0000 00c0 9fa4 8c3f 0000 0000 9ec9 88bf
000002a0: 0000 00e0 ac95 92bf 0000 00e0 0da2 8bbf
000002b0: 0000 00e0 828b 64bf 0000 00c0 e972 71bf
000002c0: 0000 00e0 9fb9 2fbf 0000 00a0 3c3f 683f
000002d0: 0000 00e0 91cd 573f 0000 00a0 13ad 853f
000002e0: 0000 00a0 4820 a0bf 0000 0000 2fd9 d63f
000002f0: 0000 0000 30a7 8bbf 0000 0080 d777 9abf
00000300: 0000 0040 af02 a5bf 0000 0020 6604 9c3f
00000310: 0000 0020 6367 833f 0000 00e0 1e7d 84bf
00000320: 0000 0080 2cd4 95bf 0000 0080 df17 76bf
00000330: 0000 00e0 bec7 7cbf 0000 00a0 2ee9 983f
00000340: 0000 00c0 1601 9c3f 0000 0060 0201 8b3f
00000350: 0000 0000 ed97 933f 0000 0000 99dd 9a3f
00000360: 0000 0060 c7e0 84bf 0000 00a0 1d81 9a3f
00000370: 0000 0040 ecd6 823f 0000 00a0 5903 943f
00000380: 0000 0020 7afe 89bf 0000 0040 afba 823f
00000390: 0000 0000 79aa 933f 0000 0000 2300 913f
000003a0: 0000 0060 0336 643f 0000 0020 2886 833f
000003b0: 0000 00e0 4074 5c3f 0000 00a0 4c24 6dbf
000003c0: 0000 00c0 4179 67bf 0000 0080 4689 8cbf
000003d0: 0000 00a0 8489 9c3f 0000 0000 5c67 99bf
000003e0: 0000 0080 22c7 eb3f 0000 0020 80bf 9e3f
000003f0: 0000 0000 bc50 a33f 0000 0080 46f4 a0bf
00000400: 0000 0080 24e2 67bf 0000 00e0 247b 713f
00000410: 0000 00a0 dab3 973f 0000 0060 09d0 51bf
00000420: 0000 00e0 d648 34bf 0000 0000 94f0 94bf
00000430: 0000 0020 bc29 8dbf 0000 00a0 c6ab 6fbf
00000440: 0000 0020 4cb4 85bf 0000 00e0 27a1 99bf
00000450: 0000 00c0 98c8 8f3f 0000 0020 79f8 97bf
00000460: 0000 0020 3e73 7cbf 0000 00c0 6763 81bf
00000470: 0000 0080 7655 913f 0000 0000 fbff 92bf
00000480: 0000 0000 9a35 8fbf 0000 00a0 eeff 8abf
00000490: 0000 00a0 6704 70bf 0000 0060 2a69 81bf
000004a0: 0000 0040 a25e 6c3f 0000 00c0 f142 403f
000004b0: 0000 00e0 2c58 703f 0000 0060 b2c7 9e3f
000004c0: 0000 00a0 b110 a2bf 0000 0020 3269 6b3f
000004d0: 0000 00a0 9450 92bf 0000 0020 a224 e13f
000004e0: 0000 0020 9b8a 88bf 0000 00c0 e68d 57bf
000004f0: 0000 00a0 985e 733f 0000 0000 a84b 87bf
00000500: 0000 0020 9a0a 67bf 0000 00a0 0a8a 853f
00000510: 0000 00a0 cf0d 14bf 0000 0080 48e9 8e3f
00000520: 0000 0000 8fd8 8bbf 0000 00e0 be5c 5ebf
00000530: 0000 0080 98fb a1bf 0000 0060 4c0c 953f
00000540: 0000 00a0 3147 a63f 0000 0000 96c4 963f
00000550: 0000 00c0 6cba 983f 0000 0040 7fe9 82bf
00000560: 0000 00c0 1fbc 4a3f 0000 00c0 946f 743f
00000570: 0000 00a0 ceb8 863f 0000 00c0 f7a1 553f
00000580: 0000 0000 5d1a 8c3f 0000 0040 7bed 96bf
00000590: 0000 00a0 3017 a93f 0000 0020 4858 7ebf
000005a0: 0000 00e0 53c6 883f 0000 0000 facd 863f
000005b0: 0000 0040 0ffd 803f 0000 0080 8672 96bf
000005c0: 0000 0020 0464 92bf 0000 00c0 6225 7f3f
000005d0: 0000 0080 9440 e33f 0000 00c0 6c06 88bf
000005e0: 0000 0020 052c 91bf 0000 00e0 bd42 7e3f
000005f0: 0000 0000 8f7d 853f 0000 00e0 afb5 953f
00000600: 0000 0000 451b 903f 0000 00c0 c660 81bf
00000610: 0000 00c0 aaa9 a9bf 0000 0020 fbf2 95bf
00000620: 0000 0000 a137 a8bf 0000 0080 dcca 8fbf
00000630: 0000 00a0 25ed 983f 0000 0040 dc9e 90bf
00000640: 0000 0020 e3df 773f 0000 00c0 d3d3 a1bf
00000650: 0000 0040 8830 703f 0000 0040 2595 75bf
00000660: 0000 00a0 83f8 88bf 0000 0040 2633 96bf
00000670: 0000 0020 c8d7 8c3f 0000 00c0 9610 98bf
00000680: 0000 0000 9b6d 913f 0000 00a0 3e09 5f3f
00000690: 0000 00e0 0364 60bf 0000 00a0 e7f1 91bf
000006a0: 0000 0000 b576 933f 0000 00e0 f6ca 92bf
000006b0: 0000 0060 d9e7 943f 0000 0020 a3e1 893f
000006c0: 0000 0000 69ad 913f 0000 00a0 a52d af3f
000006d0: 0000 0060 89f7 79bf 0000 0060 905e 823f
000006e0: 0000 0020 e048 73bf 0000 0080 94f1 8c3f
000006f0: 0000 00a0 6eaa 38bf 0000 00c0 e1f6 8cbf
00000700: 0000 0040 75d6 91bf 0000 00c0 7c3e 8abf
00000710: 0000 0020 e7dd 793f 0000 0020 6e16 97bf
00000720: 0000 00a0 e94c 8cbf 0000 00e0 31b8 92bf
00000730: 0000 0000 96a2 93bf 0000 0000 a278 713f
00000740: 0000 0080 1e2d 84bf 0000 0040 a1e9 93bf
00000750: 0000 0000 0df9 95bf 0000 0040 1a21 94bf
00000760: 0000 00c0 cb77 78bf 0000 0060 5948 6bbf
00000770: 0000 0020 39df 92bf 0000 00c0 af96 823f
00000780: 0000 0040 26db 853f 0000 0060 f867 963f
00000790: 0000 00a0 7c68 73bf 0000 0000 25f3 87bf
000007a0: 0000 00e0 1b92 97bf 0000 00a0 38c1 8dbf
000007b0: 0000 0020 86fe 823f 0000 0080 80e5 6cbf
000007c0: 0000 0000 fd23 e63f 0000 00c0 1057 453f
000007d0: 0000 0020 17a0 60bf 0000 00a0 8473 913f
000007e0: 0000 0020 a03a 843f 0000 00a0 da28 773f
000007f0: 0000 00c0 7c20 9cbf 0000 0020 821c 85bf

bias f8 [30]
0.770983874797821 0.5617846250534058 -6.062417030334473 1.7324234247207642 -5.5070319175720215 -0.8751256465911865 -1.853333592414856 3.7424516677856445
-5.457697868347168 2.2478678226470947 -0.18276500701904297 2.344541072845459 2.862023115158081 0.6371710300445557 -4.5165557861328125 -2.6702682971954346
-1.7990665435791016 0.3076044023036957 -0.1585603803396225 -0.36479452252388 0.6629948616027832 -5.435760498046875 -1.398301124572754 2.0305330753326416
-1.1784770488739014 -0.808408260345459 1.4724253416061401 -0.27803143858909607 1.0014907121658325 1.1009931564331055
00000000: 0000 0060 e6ab e83f 0000 00c0 23fa e13f
00000010: 0000 0040 ea3f 18c0 0000 00a0 01b8 fb3f
00000020: 0000 0060 3307 16c0 0000 0080 0701 ecbf
00000030: 0000 0020 41a7 fdbf 0000 0080 8af0 0d40
00000040: 0000 00c0 aed4 15c0 0000 0020 a2fb 0140
00000050: 0000 0000 d864 c7bf 0000 00c0 9ec1 0240
00000060: 0000 0060 6ce5 0640 0000 0080 b463 e43f
00000070: 0000 0000 f410 12c0 0000 00a0 b55c 05c0
00000080: 0000 0000 fac8 fcbf 0000 0060 caaf d33f
00000090: 0000 00e0 b44b c4bf 0000 0020 cb58 d7bf
000000a0: 0000 0000 4137 e53f 0000 0000 38be 15c0
000000b0: 0000 0000 715f f6bf 0000 0020 883e 0040
000000c0: 0000 00c0 0adb f2bf 0000 0000 7bde e9bf
000000d0: 0000 00e0 0d8f f73f 0000 0060 44cb d1bf
000000e0: 0000 0020 1b06 f03f 0000 0000 ab9d f13f

weight f8 [64, 30]
0.16070587933063507 -0.01732197031378746 0.18147417902946472 0.1664256602525711 -0.04229174554347992 -0.05811136215925217 -0.15324361622333527 -0.11844023317098618
-0.10137592256069183 0.1746695637702942 0.006650696508586407 0.008874558843672276 -0.1793600469827652 -0.14266148209571838 -0.15536315739154816 -0.09342854470014572
-0.045305315405130386 -0.030116302892565727 -0.03494816645979881 0.15356746315956116 0.003715810365974903 -0.11583162099123001 -0.07248823344707489 0.0070753213949501514
0.1500350683927536 0.12047687917947769 -0.02354317530989647 -0.009031640365719795 -0.1821352243423462 0.14738678932189941 0.10619582235813141 0.019275862723588943
0.151305690407753 0.10689747333526611 0.12164987623691559 -0.09739310294389725 -0.11052118986845016 0.048000454902648926 0.0073640611954033375 0.023486191406846046
-0.1507863998413086 0.0037946358788758516 0.0696016401052475 0.03085266798734665 -0.13096345961093903 -0.07454945147037506 0.07651244103908539 0.11631062626838684
0.08882621675729752 -0.10875379294157028 0.1273997277021408 0.12029635161161423 0.009944634512066841 0.16458356380462646 -0.15102195739746094 0.1099490374326706
0.1566646248102188 0.13762560486793518 -0.1267930269241333 -0.09490254521369934 0.20250003039836884 0.08612685650587082 -0.027057038620114326 0.024076934903860092
-0.1212778091430664 0.17100287973880768 -0.195458322763443 0.15984338521957397 0.12187159061431885 -0.09867487847805023 -0.0897773951292038 0.04295653849840164
-0.09849443286657333 0.1804352104663849 -0.11580905318260193 -0.06787855923175812 -0.19479909539222717 -0.0866713672876358 0.1797105371952057 0.06712041795253754
0.1481115072965622 -0.10881999880075455 -0.1689145863056183 0.0015369473258033395 0.007247040048241615 0.07331027835607529 0.16516734659671783 -0.07918917387723923
0.16764354705810547 0.08472493290901184 -0.02175651490688324 -0.032125074416399 -0.14773699641227722 0.0770919919013977 -0.11264733970165253 -0.12966974079608917
0.13096238672733307 0.029205497354269028 0.12805315852165222 0.04619303345680237 -0.0957476869225502 -0.037590496242046356 0.1599329560995102 -0.0018817485542967916
-0.11901234090328217 -0.14413584768772125 -0.10769186168909073 -0.0662931352853775 -0.06176499277353287 0.12401974201202393 0.1759076565504074 -0.05832415819168091
0.022261006757616997 0.0819234699010849 -0.16076777875423431 -0.02531513199210167 -0.18344782292842865 -0.12067373842000961 0.16848738491535187 -0.171965554356575
-0.0016594836488366127 -0.09739116579294205 -0.1252722293138504 -0.01023330818861723 -0.055471308529376984 -0.07616041600704193 -0.12724615633487701 0.06298484653234482
-0.1595969796180725 0.1666932851076126 0.1461772620677948 0.08886370807886124 -0.010263144969940186 0.09808973968029022 -0.15891551971435547 -0.11592425405979156
-0.0718924030661583 -0.039723966270685196 -0.08119574934244156 -0.0794178694486618 -0.004244402050971985 0.10578402876853943 -0.06350897252559662 0.1996350735425949
-0.138025164604187 -0.005409832112491131 -0.18345116078853607 -0.03877096623182297 0.041944459080696106 0.08076288551092148 0.0035565688740462065 -0.05841857194900513
0.1031021773815155 -0.1364050954580307 -0.12414302676916122 -0.15886420011520386 0.10830429196357727 0.03706870600581169 -0.15386433899402618 0.1762060523033142
0.04269619286060333 -0.10181164741516113 -0.12928535044193268 -0.14069180190563202 0.15406839549541473 -0.03898455202579498 -0.20507700741291046 -0.12506870925426483
0.16164907813072205 0.08922384679317474 0.15218324959278107 0.021590523421764374 -0.13355085253715515 -0.11386290937662125 0.0784761905670166 -0.11033403873443604
0.05201021954417229 0.0446518138051033 0.08937621116638184 0.081327423453331 -0.06385144591331482 -0.11304846405982971 0.1590147316455841 0.031110545620322227
0.03939053416252136 -0.0609048493206501 -0.03580963611602783 0.04258512705564499 0.018445324152708054 -0.1431782990694046 -0.17008358240127563 0.09888919442892075
0.08998686820268631 -0.09659954160451889 -0.12223060429096222 -0.09811297059059143 -0.046601470559835434 -0.14306066930294037 -0.04176207631826401 0.0049997130408883095
0.19627168774604797 -0.03918614611029625 0.023239951580762863 -0.17875966429710388 -0.1300312876701355 -0.17368029057979584 -0.16213740408420563 0.013855528086423874
0.07549834251403809 0.09735653549432755 -0.130218043923378 0.036768097430467606 -0.04481339082121849 0.06703122705221176 -0.14139895141124725 0.15886668860912323
-0.15399597585201263 -0.053272321820259094 0.1261177659034729 0.047091323882341385 -0.097632497549057 0.1198381781578064 0.06919512152671814 0.07829299569129944
-0.0948948934674263 -0.06516264379024506 0.1374203860759735 0.06241491436958313 0.073197141289711 0.019898606464266777 0.1774965226650238 -0.16576790809631348
0.12706294655799866 -0.045546941459178925 0.07423146069049835 -0.10077935457229614 -0.13718648254871368 -0.17835290729999542 -0.05699210241436958 0.13375867903232574
0.06315139681100845 0.15551720559597015 0.1497383415699005 0.15340623259544373 -0.10659509152173996 -0.05890987440943718 -0.17731644213199615 -0.11209718137979507
-0.08430031687021255 0.1592443436384201 -0.05618802458047867 -0.04746171087026596 0.10171879082918167 -0.08783956617116928 -0.1596585065126419 0.040726594626903534
00000000: 0000 00a0 0292 c43f 0000 00c0 d9bc 91bf
00000010: 0000 00c0 8b3a c73f 0000 00a0 6f4d c53f
00000020: 0000 0080 43a7 a5bf 0000 00c0 c5c0 adbf
00000030: 0000 00a0 7c9d c3bf 0000 0060 1952 bebf
00000040: 0000 00c0 c5f3 b9bf 0000 0080 925b c63f
00000050: 0000 00c0 c23d 7b3f 0000 0020 d32c 823f
00000060: 0000 0020 45f5 c6bf 0000 0040 bb42 c2bf
00000070: 0000 00a0 f0e2 c3bf 0000 00e0 eeea b7bf
00000080: 0000 0020 4232 a7bf 0000 00e0 ced6 9ebf
00000090: 0000 00e0 b9e4 a1bf 0000 0040 19a8 c33f
000000a0: 0000 0080 9e70 6e3f 0000 0020 24a7 bdbf
000000b0: 0000 00c0 968e b2bf 0000 0020 03fb 7c3f
000000c0: 0000 0060 5934 c33f 0000 00a0 92d7 be3f
000000d0: 0000 00c0 b31b 98bf 0000 0040 2e7f 82bf
000000e0: 0000 0000 3550 c7bf 0000 0000 92dd c23f
000000f0: 0000 0040 a62f bb3f 0000 0040 0dbd 933f
00000100: 0000 0020 fc5d c33f 0000 0000 a25d bb3f
00000110: 0000 0040 7224 bf3f 0000 0020 c1ee b8bf
00000120: 0000 00e0 1d4b bcbf 0000 0000 8493 a83f
00000130: 0000 0020 c729 7e3f 0000 00a0 c30c 983f
00000140: 0000 0000 f84c c3bf 0000 00a0 ed15 6f3f
00000150: 0000 00c0 69d1 b13f 0000 0080 d797 9f3f
00000160: 0000 0020 69c3 c0bf 0000 0040 ac15 b3bf
00000170: 0000 00c0 5196 b33f 0000 0080 88c6 bd3f
00000180: 0000 00a0 50bd b63f 0000 00e0 49d7 bbbf
00000190: 0000 0060 a24e c03f 0000 00e0 bdcb be3f
000001a0: 0000 0040 da5d 843f 0000 0000 1311 c53f
000001b0: 0000 0000 b054 c3bf 0000 00c0 9e25 bc3f
000001c0: 0000 0020 960d c43f 0000 0040 b79d c13f
000001d0: 0000 0000 c13a c0bf 0000 0080 884b b8bf
000001e0: 0000 0060 85eb c93f 0000 00e0 680c b63f
000001f0: 0000 0020 d7b4 9bbf 0000 00c0 9fa7 983f
00000200: 0000 0000 100c bfbf 0000 0020 6ce3 c53f
00000210: 0000 0040 c704 c9bf 0000 0080 bf75 c43f
00000220: 0000 0000 fa32 bf3f 0000 00c0 c142 b9bf
00000230: 0000 00c0 a6fb b6bf 0000 0040 66fe a53f
00000240: 0000 0060 ee36 b9bf 0000 0040 8018 c73f
00000250: 0000 0080 a9a5 bdbf 0000 0040 7d60 b1bf
00000260: 0000 0040 2def c8bf 0000 0040 1830 b6bf
00000270: 0000 0040 c100 c73f 0000 00c0 cd2e b13f
00000280: 0000 0060 51f5 c23f 0000 00a0 a0db bbbf
00000290: 0000 0040 fe9e c5bf 0000 00a0 6c2e 593f
000002a0: 0000 0080 12af 7d3f 0000 0060 76c4 b23f
000002b0: 0000 0020 3424 c53f 0000 00e0 bd45 b4bf
000002c0: 0000 0000 5875 c53f 0000 0080 88b0 b53f
000002d0: 0000 0000 5747 96bf 0000 00a0 b272 a0bf
000002e0: 0000 00c0 0be9 c2bf 0000 0000 4dbc b33f
000002f0: 0000 00c0 74d6 bcbf 0000 00a0 0499 c0bf
00000300: 0000 0020 60c3 c03f 0000 00c0 0be8 9d3f
00000310: 0000 00c0 0b64 c03f 0000 0000 9da6 a73f
00000320: 0000 00a0 eb82 b8bf 0000 00c0 0f3f a3bf
00000330: 0000 00e0 ae78 c43f 0000 0020 a0d4 5ebf
00000340: 0000 00c0 9777 bebf 0000 0020 0b73 c2bf
00000350: 0000 00a0 b191 bbbf 0000 0040 96f8 b0bf
00000360: 0000 0040 a99f afbf 0000 0000 c2bf bf3f
00000370: 0000 0060 2484 c63f 0000 0000 aadc adbf
00000380: 0000 00e0 96cb 963f 0000 00c0 eff8 b43f
00000390: 0000 00e0 0994 c4bf 0000 00c0 35ec 99bf
000003a0: 0000 00e0 377b c7bf 0000 0060 79e4 bebf
000003b0: 0000 00a0 fe90 c53f 0000 00a0 f702 c6bf
000003c0: 0000 0000 6130 5bbf 0000 00a0 a0ee b8bf
000003d0: 0000 00a0 eb08 c0bf 0000 0060 33f5 84bf
000003e0: 0000 0040 bc66 acbf 0000 00c0 3f7f b3bf
000003f0: 0000 0020 9a49 c0bf 0000 0060 c61f b03f
00000400: 0000 0080 ac6d c4bf 0000 00a0 3456 c53f
00000410: 0000 00c0 efb5 c23f 0000 00a0 c5bf b63f
00000420: 0000 0000 d804 85bf 0000 00c0 681c b93f
00000430: 0000 0000 5857 c4bf 0000 0040 36ad bdbf
00000440: 0000 0060 8a67 b2bf 0000 0020 b356 a4bf
00000450: 0000 00a0 3ec9 b4bf 0000 00c0 ba54 b4bf
00000460: 0000 0000 9462 71bf 0000 0080 a914 bb3f
00000470: 0000 00c0 1f42 b0bf 0000 0060 a48d c93f
00000480: 0000 0000 cfaa c1bf 0000 00c0 9e28 76bf
00000490: 0000 00e0 537b c7bf 0000 00c0 c9d9 a3bf
000004a0: 0000 0080 be79 a53f 0000 0060 e0ac b43f
000004b0: 0000 0060 aa22 6d3f 0000 0000 0ae9 adbf
000004c0: 0000 0080 e764 ba3f 0000 00e0 b875 c1bf
000004d0: 0000 0060 d6c7 bfbf 0000 0080 a955 c4bf
000004e0: 0000 0080 d4b9 bb3f 0000 0060 abfa a23f
000004f0: 0000 00a0 d3b1 c3bf 0000 0080 eb8d c63f
00000500: 0000 0080 46dc a53f 0000 0000 5410 babf
00000510: 0000 0020 6c8c c0bf 0000 0060 3002 c2bf
00000520: 0000 0060 83b8 c33f 0000 0080 c8f5 a3bf
00000530: 0000 00a0 f63f cabf 0000 0060 4002 c0bf
00000540: 0000 00c0 eab0 c43f 0000 00c0 5fd7 b63f
00000550: 0000 00a0 bd7a c33f 0000 0080 d31b 963f
00000560: 0000 00c0 3118 c1bf 0000 00a0 1e26 bdbf
00000570: 0000 0000 0417 b43f 0000 0000 da3e bcbf
00000580: 0000 0060 15a1 aa3f 0000 0040 9adc a63f
00000590: 0000 0000 5ce1 b63f 0000 00c0 dfd1 b43f
000005a0: 0000 0080 9158 b0bf 0000 0080 bef0 bcbf
000005b0: 0000 0040 985a c43f 0000 0060 71db 9f3f
000005c0: 0000 0000 ff2a a43f 0000 00a0 eb2e afbf
000005d0: 0000 0000 a455 a2bf 0000 00c0 b7cd a53f
000005e0: 0000 00c0 54e3 923f 0000 00a0 aa53 c2bf
000005f0: 0000 0080 4cc5 c5bf 0000 0060 cd50 b93f
00000600: 0000 0020 6109 b73f 0000 0060 bfba b8bf
00000610: 0000 0040 814a bfbf 0000 0080 ee1d b9bf
00000620: 0000 00e0 25dc a7bf 0000 00e0 cf4f c2bf
00000630: 0000 00c0 d661 a5bf 0000 0040 947a 743f
00000640: 0000 0040 6e1f c93f 0000 00e0 3410 a4bf
00000650: 0000 00c0 36cc 973f 0000 00c0 98e1 c6bf
00000660: 0000 0080 dda4 c0bf 0000 00e0 273b c6bf
00000670: 0000 0020 ebc0 c4bf 0000 0080 4960 8c3f
00000680: 0000 0000 dc53 b33f 0000 00a0 5bec b83f
00000690: 0000 0020 fcaa c0bf 0000 00a0 44d3 a23f
000006a0: 0000 00e0 c7f1 a6bf 0000 0060 f528 b13f
000006b0: 0000 0060 5c19 c2bf 0000 0060 be55 c43f
000006c0: 0000 00e0 23b6 c3bf 0000 0080 8246 abbf
000006d0: 0000 0080 a024 c03f 0000 00a0 5a1c a83f
000006e0: 0000 0080 71fe b8bf 0000 0000 b7ad be3f
000006f0: 0000 0080 c5b6 b13f 0000 0080 020b b43f
00000700: 0000 0020 084b b8bf 0000 00c0 7fae b0bf
00000710: 0000 00c0 fd96 c13f 0000 0000 d9f4 af3f
00000720: 0000 0040 0cbd b23f 0000 00e0 4c60 943f
00000730: 0000 00c0 34b8 c63f 0000 0000 e237 c5bf
00000740: 0000 0040 9943 c03f 0000 00c0 ed51 a7bf
00000750: 0000 0040 d500 b33f 0000 0000 adcc b9bf
00000760: 0000 00a0 538f c1bf 0000 00a0 44d4 c6bf
00000770: 0000 00a0 112e adbf 0000 0020 011f c13f
00000780: 0000 00a0 b02a b03f 0000 00e0 fce7 c33f
00000790: 0000 0040 a02a c33f 0000 00c0 d0a2 c33f
000007a0: 0000 00e0 d049 bbbf 0000 0060 6f29 aebf
000007b0: 0000 0020 4eb2 c6bf 0000 00a0 66b2 bcbf
000007c0: 0000 00a0 b494 b5bf 0000 0060 1e62 c43f
000007d0: 0000 0040 adc4 acbf 0000 00c0 e64c a8bf
000007e0: 0000 0020 3e0a ba3f 0000 0060 a77c b6bf
000007f0: 0000 00a0 b06f c4bf 0000 00c0 1dda a43f

bias f8 [64]
0.0442177914083004 -0.036120884120464325 0.1707095056772232 0.041034355759620667 0.087370365858078 -0.04754803702235222 -0.07075166702270508 0.20158927142620087
-0.10234206169843674 -0.062160443514585495 0.1524951010942459 -0.00579302990809083 0.04429897293448448 -0.009497681632637978 0.048895034939050674 0.06248718500137329
-0.1135575994849205 -0.15473057329654694 0.1526193767786026 0.07473324239253998 0.09643974155187607 0.022551335394382477 0.09996399283409119 0.014853280037641525
-0.0198656115680933 0.011245342902839184 -0.04531992971897125 0.06253360211849213 0.2115548551082611 0.030013538897037506 -0.09590613096952438 0.19915416836738586
0.0710047259926796 0.1947190761566162 -0.11970878392457962 -0.018937284126877785 -0.09938065707683563 -0.08173787593841553 -0.1675000935792923 0.19956140220165253
0.05722163990139961 0.012457409873604774 -0.02371341921389103 0.13333210349082947 -0.02443152852356434 -0.05767442286014557 0.10747651010751724 0.031356509774923325
-0.0021395492367446423 0.06715840101242065 -0.05595271661877632 -0.17471151053905487 0.10512827336788177 0.16522546112537384 0.1934712529182434 -0.10100927203893661
0.055358558893203735 -0.05828222259879112 -0.09818680584430695 0.07592116296291351 -0.0424044243991375 -0.07440616935491562 -0.17281858623027802 0.01592550426721573
00000000: 0000 00e0 b6a3 a63f 0000 00c0 6f7e a2bf
00000010: 0000 0020 cfd9 c53f 0000 0080 7402 a53f
00000020: 0000 0080 e75d b63f 0000 0060 3758 a8bf
00000030: 0000 0000 c81c b2bf 0000 0060 adcd c93f
00000040: 0000 00e0 1633 babf 0000 0060 7ed3 afbf
00000050: 0000 00a0 f584 c33f 0000 00a0 6eba 77bf
00000060: 0000 00e0 5aae a63f 0000 0040 8573 83bf
00000070: 0000 0020 c508 a93f 0000 0000 52fe af3f
00000080: 0000 0060 1c12 bdbf 0000 0020 36ce c3bf
00000090: 0000 0020 0889 c33f 0000 00c0 b721 b33f
000000a0: 0000 0060 46b0 b83f 0000 0080 b217 973f
000000b0: 0000 0080 3d97 b93f 0000 0080 656b 8e3f
000000c0: 0000 00a0 a657 94bf 0000 0060 cc07 873f
000000d0: 0000 0080 2c34 a7bf 0000 00c0 3302 b03f
000000e0: 0000 00c0 3a14 cb3f 0000 0080 debb 9e3f
000000f0: 0000 00e0 4d8d b8bf 0000 0040 e27d c93f
00000100: 0000 00a0 5d2d b23f 0000 0000 8eec c83f
00000110: 0000 0020 3ca5 bebf 0000 00a0 4b64 93bf
00000120: 0000 00c0 0271 b9bf 0000 0000 c6ec b4bf
00000130: 0000 00a0 a470 c5bf 0000 0060 3a8b c93f
00000140: 0000 00a0 274c ad3f 0000 0040 4583 893f
00000150: 0000 00a0 5448 98bf 0000 00c0 0611 c13f
00000160: 0000 0020 9404 99bf 0000 0080 8087 adbf
00000170: 0000 00a0 9483 bb3f 0000 00e0 f50d a03f
00000180: 0000 00c0 f586 61bf 0000 0000 4b31 b13f
00000190: 0000 00a0 d5a5 acbf 0000 0060 f25c c6bf
000001a0: 0000 00c0 afe9 ba3f 0000 00a0 1b26 c53f
000001b0: 0000 0080 aac3 c83f 0000 0060 bedb b9bf
000001c0: 0000 0000 f557 ac3f 0000 00e0 2ad7 adbf
000001d0: 0000 0040 c522 b9bf 0000 00c0 916f b33f
000001e0: 0000 0060 08b6 a5bf 0000 0060 480c b3bf
000001f0: 0000 0060 eb1e c6bf 0000 0080 c64e 903f

weight f8 [64, 64]
0.06767737120389938 0.09928251802921295 0.02675369195640087 0.10736600309610367 0.06577952206134796 0.0674089714884758 0.05583004280924797 0.13357658684253693
-0.08010318875312805 -0.06934146583080292 -0.019638780504465103 0.12332358211278915 0.035721808671951294 -0.09757155179977417 -0.0925353541970253 0.10543902963399887
-0.00011889174493262544 -0.019288504496216774 -0.04299604892730713 0.08087295293807983 0.13758203387260437 -0.013997114263474941 0.028099900111556053 0.08718540519475937
-0.012834903784096241 0.03021565079689026 0.03074735589325428 -0.007354033645242453 -0.05045121908187866 -0.09247644245624542 -0.046479251235723495 -0.06772223860025406
0.1373717039823532 0.12766912579536438 0.14087286591529846 0.0165573600679636 0.12783710658550262 -0.04969634488224983 0.09170352667570114 0.15430450439453125
-0.013115271925926208 0.12131410092115402 0.1145193800330162 -0.004258891101926565 0.025705486536026 0.17469851672649384 0.007563677616417408 0.09449303895235062
-0.0410885214805603 -0.056711018085479736 -0.09804021567106247 0.019577108323574066 0.04054940491914749 0.12078701704740524 0.11298494786024094 -0.06820199638605118
-0.08356139063835144 0.025552090257406235 -0.02618299052119255 -0.044478610157966614 -0.08058874309062958 -0.07630056887865067 -0.08803485333919525 0.10131841897964478
-0.05581454932689667 -0.06804730743169785 -0.13206498324871063 -0.016463933512568474 0.029491204768419266 0.11315575987100601 0.027705814689397812 0.0411905013024807
0.08146350085735321 -0.08503535389900208 0.08916518092155457 0.08624928444623947 -0.10261309146881104 0.1240079328417778 -0.06893374025821686 -0.0759301632642746
0.05513010919094086 0.0778006762266159 0.09895496070384979 -0.03222239762544632 -0.04636460542678833 0.09233374148607254 0.0703030377626419 0.06646838039159775
0.09499397873878479 0.008024701848626137 -0.13685065507888794 -0.07367557287216187 0.03934735432267189 -0.13101209700107574 -0.07049556076526642 -0.10917577147483826
0.05707331374287605 0.05616927891969681 0.06103791669011116 -0.0752658098936081 -0.04759417846798897 0.0296439491212368 0.09353689104318619 0.004262723959982395
-0.08072452992200851 0.07785574346780777 -0.016690459102392197 -0.019378604367375374 0.023940706625580788 -0.056685227900743484 0.029887858778238297 -0.08179228007793427
0.06917434930801392 0.08365439623594284 0.11644883453845978 -0.09498487412929535 0.053596917539834976 0.02487795613706112 0.05542055517435074 -0.06212737783789635
0.09122373163700104 -0.1145215705037117 -0.10274481028318405 0.011704056523740292 0.11205527931451797 0.06763878464698792 -0.04281235486268997 0.017256980761885643
-0.08888127654790878 -0.024393631145358086 -0.08055073767900467 -0.028311554342508316 0.0261502955108881 -0.09707549214363098 -0.035495828837156296 0.03512929007411003
-0.06582760065793991 0.10830432921648026 -0.09775711596012115 -0.04506051540374756 0.04310218617320061 -0.10449737310409546 -0.05138756334781647 0.05178957059979439
0.12736301124095917 -0.01766263321042061 0.13152003288269043 0.09190324693918228 0.13284114003181458 -0.08267819136381149 -0.09616120904684067 0.13342586159706116
-0.09465575963258743 0.10700730234384537 0.09153523296117783 -0.1139276921749115 0.07607579976320267 0.09188003093004227 -0.08233832567930222 0.03340916708111763
0.04928027093410492 -0.10025273263454437 0.03837412968277931 -0.1041451096534729 -0.043086063116788864 0.02748931013047695 -0.08868329226970673 0.012760876677930355
0.09498269110918045 0.03858795389533043 -0.11459086090326309 -0.042399413883686066 0.07173439860343933 0.06550347805023193 -0.01191587746143341 -0.01223104540258646
-0.019241735339164734 -0.09631171077489853 0.01404370367527008 -0.02625221572816372 0.008640266954898834 0.11706708371639252 -0.04506084322929382 -0.13169583678245544
0.04597526416182518 0.055796682834625244 -0.03186638280749321 -0.004027358256280422 0.1313380002975464 0.014586152508854866 -0.02732057496905327 -0.05138075351715088
-0.12057638168334961 0.031690988689661026 0.07852694392204285 0.09622131288051605 -0.0753374695777893 -0.05336232855916023 0.032749321311712265 -0.018942197784781456
-0.006628238596022129 0.0033297548070549965 0.09382357448339462 0.1406555026769638 -0.09906481951475143 -0.016752155497670174 0.10748203098773956 -0.14366939663887024
0.03995431214570999 0.005120499059557915 -0.101140595972538 -0.03532731905579567 0.1312151849269867 0.07111600786447525 -0.0736987367272377 0.07247202843427658
0.08545002341270447 0.04653877019882202 -0.04540391266345978 0.12688858807086945 0.007174771279096603 0.004354055505245924 0.07700489461421967 0.007652766536921263
-0.025981947779655457 0.11052276194095612 0.05509110912680626 -0.08639906346797943 0.0006286766729317605 -0.10420677810907364 0.03928911313414574 0.015280831605196
-0.041597072035074234 0.0147718396037817 -0.0874413326382637 0.09890776127576828 -0.07025852054357529 0.10077838599681854 -0.04643096774816513 -0.030086688697338104
0.07363339513540268 0.07795341312885284 0.02753494866192341 0.04135822504758835 0.024632666260004044 0.11651003360748291 -0.0875488817691803 0.10906500369310379
-0.022058790549635887 -0.013304698280990124 -0.003668643534183502 -0.09956825524568558 -0.10016565769910812 0.07828085124492645 0.024572297930717468 0.11403829604387283
00000000: 0000 00e0 4d53 b13f 0000 0040 946a b93f
00000010: 0000 00e0 5165 9b3f 0000 00a0 567c bb3f
00000020: 0000 0040 edd6 b03f 0000 00e0 b641 b13f
00000030: 0000 0060 c195 ac3f 0000 00a0 0919 c13f
00000040: 0000 0080 a481 b4bf 0000 00c0 5cc0 b1bf
00000050: 0000 0040 301c 94bf 0000 0060 2292 bf3f
00000060: 0000 0000 214a a23f 0000 0000 73fa b8bf
00000070: 0000 00a0 65b0 b7bf 0000 0060 0dfe ba3f
00000080: 0000 00a0 b02a 1fbf 0000 00a0 5dc0 93bf
00000090: 0000 0000 9403 a6bf 0000 0000 17b4 b43f
000000a0: 0000 00c0 499c c13f 0000 00e0 84aa 8cbf
000000b0: 0000 0060 38c6 9c3f 0000 0060 c851 b63f
000000c0: 0000 00a0 2f49 8abf 0000 0000 daf0 9e3f
000000d0: 0000 0020 3c7c 9f3f 0000 0060 431f 7ebf
000000e0: 0000 0000 bed4 a9bf 0000 0040 89ac b7bf
000000f0: 0000 00e0 20cc a7bf 0000 00a0 3e56 b1bf
00000100: 0000 0060 6595 c13f 0000 0040 7657 c03f
00000110: 0000 0040 1f08 c23f 0000 00a0 69f4 903f
00000120: 0000 0060 f75c c03f 0000 00a0 cc71 a9bf
00000130: 0000 00e0 e179 b73f 0000 0000 40c0 c33f
00000140: 0000 0000 2edc 8abf 0000 00e0 700e bf3f
00000150: 0000 0060 2451 bd3f 0000 0060 c571 71bf
00000160: 0000 0000 8a52 9a3f 0000 0060 855c c63f
00000170: 0000 0040 17fb 7e3f 0000 0020 b230 b83f
00000180: 0000 0000 8e09 a5bf 0000 0000 3a09 adbf
00000190: 0000 00e0 2919 b9bf 0000 0080 050c 943f
000001a0: 0000 0040 e4c2 a43f 0000 00e0 e5eb be3f
000001b0: 0000 00e0 94ec bc3f 0000 00a0 af75 b1bf
000001c0: 0000 0080 4764 b5bf 0000 00c0 532a 9a3f
000001d0: 0000 00c0 b6cf 9abf 0000 0080 e6c5 a6bf
000001e0: 0000 00c0 76a1 b4bf 0000 0020 6f88 b3bf
000001f0: 0000 00c0 7389 b6bf 0000 0000 01f0 b93f
00000200: 0000 0080 b993 acbf 0000 0060 8c6b b1bf
00000210: 0000 0060 81e7 c0bf 0000 00e0 ebdb 90bf
00000220: 0000 0040 f132 9e3f 0000 00a0 c6f7 bc3f
00000230: 0000 00c0 e95e 9c3f 0000 00e0 eb16 a53f
00000240: 0000 00c0 cada b43f 0000 0080 e0c4 b5bf
00000250: 0000 0080 87d3 b63f 0000 00e0 6e14 b63f
00000260: 0000 0000 da44 babf 0000 00e0 fbbe bf3f
00000270: 0000 0040 a4a5 b1bf 0000 00c0 2870 b3bf
00000280: 0000 0080 033a ac3f 0000 00c0 beea b33f
00000290: 0000 00c0 1c55 b93f 0000 0040 747f a0bf
000002a0: 0000 0000 1abd a7bf 0000 0020 2fa3 b73f
000002b0: 0000 0040 61ff b13f 0000 0060 1204 b13f
000002c0: 0000 0080 8651 b83f 0000 0040 416f 803f
000002d0: 0000 0080 5284 c1bf 0000 0000 67dc b2bf
000002e0: 0000 0020 5625 a43f 0000 0020 01c5 c0bf
000002f0: 0000 0040 ff0b b2bf 0000 0080 f1f2 bbbf
00000300: 0000 00a0 b638 ad3f 0000 0040 38c2 ac3f
00000310: 0000 00a0 5c40 af3f 0000 00c0 9e44 b3bf
00000320: 0000 00a0 435e a8bf 0000 00c0 fb5a 9e3f
00000330: 0000 00a0 08f2 b73f 0000 0040 ca75 713f
00000340: 0000 00e0 5caa b4bf 0000 00a0 5aee b33f
00000350: 0000 00c0 4d17 91bf 0000 0020 fcd7 93bf
00000360: 0000 00a0 e983 983f 0000 00a0 d805 adbf
00000370: 0000 0040 ec9a 9e3f 0000 00c0 56f0 b4bf
00000380: 0000 0000 69b5 b13f 0000 00e0 5f6a b53f
00000390: 0000 0040 97cf bd3f 0000 00c0 ed50 b8bf
000003a0: 0000 0020 0e71 ab3f 0000 0060 9b79 993f
000003b0: 0000 0040 1560 ac3f 0000 00e0 28cf afbf
000003c0: 0000 0040 705a b73f 0000 0020 4951 bdbf
000003d0: 0000 00e0 7b4d babf 0000 00e0 4bf8 873f
000003e0: 0000 00a0 a7af bc3f 0000 0080 c650 b13f
000003f0: 0000 0040 80eb a5bf 0000 0060 d0ab 913f
00000400: 0000 0060 ecc0 b6bf 0000 00e0 a4fa 98bf
00000410: 0000 0020 f99e b4bf 0000 0040 b4fd 9cbf
00000420: 0000 00a0 24c7 9a3f 0000 0080 f0d9 b8bf
00000430: 0000 0060 822c a2bf 0000 0060 77fc a13f
00000440: 0000 00e0 13da b0bf 0000 0020 d5b9 bb3f
00000450: 0000 0040 9c06 b9bf 0000 0000 2c12 a7bf
00000460: 0000 0060 7d11 a63f 0000 0000 57c0 babf
00000470: 0000 0080 784f aabf 0000 00a0 2984 aa3f
00000480: 0000 0060 6e4d c03f 0000 0040 2716 92bf
00000490: 0000 0000 a6d5 c03f 0000 00a0 f886 b73f
000004a0: 0000 0040 f000 c13f 0000 00e0 652a b5bf
000004b0: 0000 0060 059e b8bf 0000 0040 1914 c13f
000004c0: 0000 0020 5c3b b8bf 0000 00a0 d464 bb3f
000004d0: 0000 0060 da6e b73f 0000 0080 5d2a bdbf
000004e0: 0000 0020 b479 b33f 0000 0020 7385 b73f
000004f0: 0000 00e0 1f14 b5bf 0000 00a0 011b a13f
00000500: 0000 0080 433b a93f 0000 00c0 29aa b9bf
00000510: 0000 0020 c6a5 a33f 0000 0000 41a9 babf
00000520: 0000 0060 600f a6bf 0000 0060 2826 9c3f
00000530: 0000 00c0 f2b3 b6bf 0000 00e0 5f22 8a3f
00000540: 0000 0020 c950 b83f 0000 00e0 ccc1 a33f
00000550: 0000 00a0 d355 bdbf 0000 0040 60b5 a5bf
00000560: 0000 0080 2f5d b23f 0000 0000 d6c4 b03f
00000570: 0000 0000 5a67 88bf 0000 0020 970c 89bf
00000580: 0000 0000 1bb4 93bf 0000 0060 e2a7 b8bf
00000590: 0000 0000 f2c2 8c3f 0000 0060 dce1 9abf
000005a0: 0000 0000 fdb1 813f 0000 00c0 1bf8 bd3f
000005b0: 0000 0000 3712 a7bf 0000 00c0 68db c0bf
000005c0: 0000 00e0 118a a73f 0000 0000 6291 ac3f
000005d0: 0000 0060 ca50 a0bf 0000 00c0 fd7e 70bf
000005e0: 0000 0000 afcf c03f 0000 0040 58df 8d3f
000005f0: 0000 00c0 ecf9 9bbf 0000 0000 944e aabf
00000600: 0000 0000 18de bebf 0000 0020 cd39 a03f
00000610: 0000 0080 571a b43f 0000 00c0 f5a1 b83f
00000620: 0000 0000 5149 b3bf 0000 00a0 4e52 abbf
00000630: 0000 00e0 84c4 a03f 0000 0060 9565 93bf
00000640: 0000 0040 3626 7bbf 0000 0080 0047 6b3f
00000650: 0000 0060 d204 b83f 0000 00e0 ff00 c23f
00000660: 0000 00e0 4f5c b9bf 0000 0020 7a27 91bf
00000670: 0000 0040 f183 bb3f 0000 0040 c263 c2bf
00000680: 0000 0040 e474 a43f 0000 0080 3bf9 743f
00000690: 0000 00a0 59e4 b9bf 0000 0020 6c16 a2bf
000006a0: 0000 00c0 a8cb c03f 0000 00a0 a834 b23f
000006b0: 0000 00a0 ebdd b2bf 0000 00e0 868d b23f
000006c0: 0000 0080 0de0 b53f 0000 0000 eed3 a73f
000006d0: 0000 0080 2e3f a7bf 0000 00a0 e23d c03f
000006e0: 0000 0000 4b63 7d3f 0000 00e0 8ed5 713f
000006f0: 0000 00c0 97b6 b33f 0000 00e0 8158 7f3f
00000700: 0000 0000 039b 9abf 0000 0040 384b bc3f
00000710: 0000 00e0 e634 ac3f 0000 00c0 3f1e b6bf
00000720: 0000 00e0 b899 443f 0000 00a0 4bad babf
00000730: 0000 00e0 b31d a43f 0000 0080 8e4b 8f3f
00000740: 0000 0020 364c a5bf 0000 00c0 b240 8e3f
00000750: 0000 0020 8e62 b6bf 0000 00e0 0452 b93f
00000760: 0000 0060 76fc b1bf 0000 00c0 9ccc b93f
00000770: 0000 00c0 ccc5 a7bf 0000 0080 0bcf 9ebf
00000780: 0000 0060 a3d9 b23f 0000 0040 c1f4 b33f
00000790: 0000 0020 1f32 9c3f 0000 00c0 e72c a53f
000007a0: 0000 0040 4e39 993f 0000 0000 9ad3 bd3f
000007b0: 0000 0080 9a69 b6bf 0000 0020 afeb bb3f
000007c0: 0000 0060 9496 96bf 0000 0060 7e3f 8bbf
000007d0: 0000 0000 b40d 6ebf 0000 0020 4e7d b9bf
000007e0: 0000 00e0 74a4 b9bf 0000 00c0 360a b43f
000007f0: 0000 0000 7b29 993f 0000 0020 9d31 bd3f

bias f8 [64]
0.10300105065107346 0.032339971512556076 0.027274416759610176 0.030333897098898888 0.10787694156169891 0.02864132449030876 0.10283682495355606 0.028237659484148026
-0.023867951706051826 0.051044244319200516 0.057617418467998505 0.10309255123138428 -0.005546325817704201 -0.08676951378583908 -0.06098653003573418 -0.02207568846642971
0.08475755155086517 0.11472264677286148 0.03148896247148514 0.12460357695817947 -0.10398862510919571 0.09147937595844269 0.07886090129613876 0.016477420926094055
-0.11775877326726913 -0.10668671131134033 0.07259062677621841 0.05535344406962395 -0.057484209537506104 -0.09245654940605164 0.15879689157009125 0.1005774736404419
0.04046136140823364 0.0647166296839714 0.16759996116161346 -0.05448382347822189 0.0050248149782419205 0.061354007571935654 0.09415071457624435 0.16311092674732208
0.07320273667573929 -0.04248201102018356 0.1359574794769287 0.07929252088069916 0.13263081014156342 -0.06628646701574326 0.18956121802330017 0.049526166170835495
0.06052790582180023 -0.03597008064389229 -0.04380984976887703 -0.044086962938308716 -0.12381363660097122 0.08025626093149185 0.018134187906980515 0.1154862716794014
0.06377913802862167 0.04504428803920746 -0.06490986794233322 0.14608700573444366 -0.0733085572719574 -0.05915828049182892 0.037245459854602814 0.1639154851436615
00000000: 0000 00e0 465e ba3f 0000 0060 dd8e a03f
00000010: 0000 0020 d3ed 9b3f 0000 0060 d90f 9f3f
00000020: 0000 00c0 d29d bb3f 0000 00c0 2654 9d3f
00000030: 0000 00a0 8353 ba3f 0000 0040 55ea 9c3f
00000040: 0000 0020 d770 98bf 0000 00a0 7822 aa3f
00000050: 0000 00c0 0780 ad3f 0000 0000 4664 ba3f
00000060: 0000 0080 beb7 76bf 0000 00e0 8636 b6bf
00000070: 0000 0060 a039 afbf 0000 0060 029b 96bf
00000080: 0000 00c0 abb2 b53f 0000 00a0 765e bd3f
00000090: 0000 0040 521f a03f 0000 0020 05e6 bf3f
000000a0: 0000 00a0 ff9e babf 0000 0040 316b b73f
000000b0: 0000 0060 3a30 b43f 0000 0000 75df 903f
000000c0: 0000 0060 7025 bebf 0000 0000 d24f bbbf
000000d0: 0000 00a0 4c95 b23f 0000 0060 4957 ac3f
000000e0: 0000 0000 926e adbf 0000 0080 3bab b7bf
000000f0: 0000 00e0 7453 c43f 0000 0000 72bf b93f
00000100: 0000 0000 5ab7 a43f 0000 00e0 4491 b03f
00000110: 0000 0060 ea73 c53f 0000 00c0 4de5 abbf
00000120: 0000 0080 e694 743f 0000 00e0 ca69 af3f
00000130: 0000 00e0 421a b83f 0000 00a0 d1e0 c43f
00000140: 0000 0020 6abd b23f 0000 00c0 33c0 a5bf
00000150: 0000 0000 0e67 c13f 0000 00c0 834c b43f
00000160: 0000 00e0 0bfa c03f 0000 0060 26f8 b0bf
00000170: 0000 00c0 8a43 c83f 0000 0060 7e5b a93f
00000180: 0000 0080 83fd ae3f 0000 00a0 ab6a a2bf
00000190: 0000 00a0 3e6e a6bf 0000 0000 9192 a6bf
000001a0: 0000 0020 40b2 bfbf 0000 00a0 ac8b b43f
000001b0: 0000 00c0 c491 923f 0000 0020 8290 bd3f
000001c0: 0000 0060 d453 b03f 0000 0080 0b10 a73f
000001d0: 0000 00e0 ee9d b0bf 0000 00a0 fab2 c23f
000001e0: 0000 0080 59c4 b2bf 0000 0080 fe49 aebf
000001f0: 0000 0040 d611 a33f 0000 00c0 2efb c43f

weight f8 [1, 64]
-0.134579136967659 0.00032602023566141725 -0.01589657925069332 -0.06140166521072388 -0.0576234795153141 -0.12101409584283829 -0.06653273850679398 0.10557303577661514
0.021511700004339218 -0.13713814318180084 -0.1422412395477295 -0.1454380601644516 -0.03259633108973503 0.05119471251964569 -0.1430482417345047 0.12061309814453125
0.04501470550894737 -0.12728749215602875 -0.08960574865341187 -0.08868017792701721 0.09112086892127991 -0.056647852063179016 0.06612454354763031 -0.01399653684347868
0.06977822631597519 0.09820549935102463 0.1042456328868866 -0.12058353424072266 -0.0604742057621479 -0.003973870538175106 -0.12330784648656845 -0.16793863475322723
-0.03241077437996864 0.005190734751522541 -0.02921740710735321 -0.08582694083452225 -0.046882640570402145 0.08826779574155807 0.033297426998615265 -0.11340160667896271
-0.023873087018728256 0.06462278217077255 -0.1338922083377838 0.11529936641454697 -0.11889538913965225 0.01405299361795187 -0.025868074968457222 0.03755785897374153
-0.10979794710874557 -0.14236398041248322 0.01295525673776865 -0.04461650550365448 0.01207352988421917 -0.05171605944633484 -0.15401703119277954 -0.07379399985074997
-0.03365467116236687 -0.040637191385030746 0.10560248047113419 -0.075259268283844 0.0980435237288475 0.044634707272052765 -0.021037913858890533 -0.12107466161251068
00000000: 0000 00a0 e339 c1bf 0000 0040 b65d 353f
00000010: 0000 0060 3147 90bf 0000 0000 0a70 afbf
00000020: 0000 0020 d380 adbf 0000 00a0 c7fa bebf
00000030: 0000 0020 4a08 b1bf 0000 00a0 d506 bb3f
00000040: 0000 00c0 2907 963f 0000 0020 be8d c1bf
00000050: 0000 0000 f634 c2bf 0000 00e0 b69d c2bf
00000060: 0000 0060 77b0 a0bf 0000 0080 3136 aa3f
00000070: 0000 00a0 674f c2bf 0000 0000 80e0 be3f
00000080: 0000 00e0 2a0c a73f 0000 00e0 f44a c0bf
00000090: 0000 0000 67f0 b6bf 0000 0080 beb3 b6bf
000000a0: 0000 0080 b253 b73f 0000 0080 f200 adbf
000000b0: 0000 00c0 89ed b03f 0000 0060 37aa 8cbf
000000c0: 0000 0060 fcdc b13f 0000 00e0 fe23 b93f
000000d0: 0000 0080 d7af ba3f 0000 0000 90de bebf
000000e0: 0000 00a0 79f6 aebf 0000 00c0 e746 70bf
000000f0: 0000 0060 1a91 bfbf 0000 0060 037f c5bf
00000100: 0000 0020 2598 a0bf 0000 0040 e142 753f
00000110: 0000 0000 2beb 9dbf 0000 0020 c1f8 b5bf
00000120: 0000 0060 0001 a8bf 0000 00e0 b798 b63f
00000130: 0000 0040 5c0c a13f 0000 0040 e307 bdbf
00000140: 0000 00c0 2f72 98bf 0000 0060 1e8b b03f
00000150: 0000 0040 6123 c1bf 0000 0060 4284 bd3f
00000160: 0000 00a0 ed6f bebf 0000 00e0 d0c7 8c3f
00000170: 0000 0020 297d 9abf 0000 00a0 c83a a33f
00000180: 0000 00e0 b71b bcbf 0000 00a0 fb38 c2bf
00000190: 0000 0020 4988 8a3f 0000 0080 f9d7 a6bf
000001a0: 0000 00c0 01ba 883f 0000 0000 877a aabf
000001b0: 0000 0080 d4b6 c3bf 0000 00e0 29e4 b2bf
000001c0: 0000 0060 2f3b a1bf 0000 00e0 65ce a4bf
000001d0: 0000 00a0 c308 bb3f 0000 0000 3144 b3bf
000001e0: 0000 0060 6119 b93f 0000 0040 5cda a63f
000001f0: 0000 0080 f68a 95bf 0000 00c0 bffe bebf

bias f8 [1]
-0.04795133322477341
00000000: 0000 00c0 138d a8bf
