fitsnap_fits/fitsnap_examples/Ta_PyTorch_NN/Ta_Pytorch.pt (torch, 95083 bytes, 21 tensors)

network_architecture0.0.weight f4 [30, 30]
0.010154452 0.015072857 -0.02405039 0.022447221 -0.022347832 -0.02645125 -0.027585125 0.027158627
0.0021176606 -0.0013438886 -0.021263406 0.0005000088 0.0014277813 0.017653776 0.013480402 0.0002932246
0.0100319 0.025135329 -0.014781438 0.022748435 0.0073796185 0.005534575 -0.01691889 0.02128293
0.012602143 0.011449589 0.0014770051 0.006822676 -0.005807795 0.00079746667 -0.014306277 0.52634853
0.007991678 -0.007173925 0.028626168 0.011898038 0.02231497 -0.021119583 0.014918975 -0.011287718
-0.016452352 -0.014446917 -0.0152982725 0.0012200245 0.027021127 0.025467588 0.057838887 -0.0036518972
-0.0010960833 0.0028061855 -0.014952744 0.028207105 -0.004305371 -0.03362585 0.0055966456 0.0024727667
-0.01951075 0.027697647 -0.016011873 -0.005158095 -0.0026552936 -0.013906491 2.4378867 -0.020087475
0.01705925 0.02340413 0.029221877 -0.024442466 -0.0074692327 0.009407973 0.020699684 0.0023597372
0.0033496532 -0.022074236 -0.020441964 -0.00918571 -0.011306206 -0.025333205 0.008940939 -0.02519492
-0.009693485 -0.015227503 0.013894188 -0.011920745 -0.01801915 -0.0132297 -0.0025525289 -0.0041457503
-0.000126732 0.0030866673 0.0014961892 0.010786022 -0.032217246 0.356705 -0.013522715 -0.026710419
-0.04123223 0.027347418 0.008797801 -0.00963485 -0.021521388 -0.0051402585 -0.0061521824 0.02393465
0.026723724 0.013416011 0.018582521 0.025959577 -0.009455746 0.025811411 0.009228351 0.018214293
-0.012590453 0.008881827 0.019032063 0.016282799 0.002427156 0.00930844 0.001541984 -0.0038259083
-0.0027405743 -0.014129394 0.029455872 -0.024607057 0.86773396 0.030744009 0.038170904 -0.03273517
-0.0026631872 0.0042464146 0.023371134 -0.0010571874 -0.00085131015 -0.020278312 -0.014195223 -0.0044243014
-0.01051795 -0.024989778 0.014596641 -0.02375437 -0.007226084 -0.0077234735 0.01667283 -0.018386753
-0.015369535 -0.013049485 -0.0039661285 -0.008486451 0.0032485242 0.000616001 0.004200728 0.029457847
-0.033504922 0.0035334777 -0.018359145 0.53642404 -0.011016214 -0.0010006899 0.0046232534 -0.011100444
-0.0024475555 0.010726311 -0.0005189732 0.014849555 -0.013882 -0.0023457778 -0.035440274 0.020365108
0.04227654 0.021129599 0.02361665 -0.008768749 0.0004317315 0.00500339 0.010700821 0.0012049422
0.013280449 -0.022628972 0.047759295 -0.0077509433 0.012134014 0.011215914 0.00858704 -0.02155448
-0.018026378 0.008511464 0.6013707 -0.011661541 -0.015763292 0.0068431236 0.010697573 0.020797187
0.014574519 -0.007926075 -0.049070593 -0.021695567 -0.046630003 -0.015068689 0.02356551 -0.015910694
0.0058960803 -0.033002306 0.0038971058 -0.004901586 -0.011858624 -0.0212357 0.014327364 -0.023229193
0.017427586 0.0023050131 -0.0021692573 -0.016602816 0.018185873 -0.018217608 0.02063082 0.012194208
0.016608376 0.06039476 -0.0060730306 0.0085695535 -0.004447181 0.012808246 2.941145e-05 -0.014156128
-0.016121836 -0.011873261 0.0069493926 -0.022128139 -0.012873686 -0.01761577 -0.018286075 0.0037982967
-0.008643916 -0.018677989 -0.020459985 -0.018789155 -0.0056978706 -0.0026275744 -0.016847802 0.009245959
0.010902142 0.02139071 -0.0035053468 -0.0113704 -0.02328408 -0.013644211 0.009406043 -0.0029656508
0.69230807 0.0005674489 -0.0015902425 0.016938545 0.009229239 0.005649387 -0.02739502 -0.011103534
00000000: dc5e 263c 25f4 763c 5305 c5bc 3ce3 b73c
00000010: cd12 b7bc 4bb0 d8bc 33fa e1bc c57b de3c
00000020: 73c8 0a3b 6b25 b0ba 9830 aebc 0613 033a
00000030: 6424 bb3a a79e 903c e7dc 5c3c f1bb 9939
00000040: d75c 243c 9be8 cd3c d82d 72bc ed5a ba3c
00000050: bad0 f13b 615b b53b 7c99 8abc 8a59 ae3c
00000060: 3879 4e3c 0f97 3b3c 1198 c13a c190 df3b
00000070: 514f bebb 150d 513a e064 6abc c7be 063f
00000080: 87ef 023c 3f13 ebbb 6d81 ea3c fdef 423c
00000090: e2cd b63c fa02 adbc b76e 743c 1ff0 38bc
000000a0: 15c7 86bc c3b2 6cbc 9ba5 7abc 3be9 9f3a
000000b0: 695b dd3c 67a1 d03c 78e8 6c3d ab54 6fbb
000000c0: 74aa 8fba fbe7 373b 5bfc 74bc 9612 e73c
000000d0: 1214 8dbb 42bb 09bd 1164 b73b 240e 223b
000000e0: 02d5 9fbc 2de6 e23c 552b 83bc 3d05 a9bb
000000f0: 6f04 2ebb 0dd8 63bc 5606 1c40 7d8e a4bc
00000100: d7bf 8b3c 05ba bf3c b862 ef3c 913b c8bc
00000110: 77c0 f4bb e623 1a3c 6292 a93c d2a5 1a3b
00000120: db85 5b3b 07d5 b4bc e875 a7bc a97f 16bc
00000130: aa3d 39bc 9587 cfbc 047d 123c 9465 cebc
00000140: 6cd1 1ebc c77c 79bc 73a4 633c 3a4f 43bc
00000150: e59c 93bc 62c1 58bc 5448 27bb 13d9 87bb
00000160: 5de3 04b9 af49 4a3b c71b c43a dbb7 303c
00000170: 3bf6 03bd 0aa2 b63e 618e 5dbc cfcf dabc
00000180: 20e3 28bd b107 e03c a724 103c 7ddb 1dbc
00000190: 9f4d b0bc 9d6f a8bb 3f98 c9bb 9912 c43c
000001a0: b6eb da3c d4ce 5b3c 5f3a 983c 2ea9 d43c
000001b0: 46ec 1abc 7472 d33c 8232 173c 2436 953c
000001c0: 3048 4ebc 1585 113c 21e9 9b3c 8163 853c
000001d0: ec10 1f3b 6d82 183c 661c ca3a 17bc 7abb
000001e0: 359b 33bb f97e 67bc 714d f13c bd94 c9bc
000001f0: d023 5e3f dcda fb3c 1859 1c3d 5015 06bd
00000200: de88 2ebb 8225 8b3b d274 bf3c 5391 8aba
00000210: 752a 5fba b41e a6bc 1593 68bc bbf9 90bb
00000220: 7b53 2cbc 5db7 ccbc c026 6f3c 8698 c2bc
00000230: c9c8 ecbb 3115 fdbb 7595 883c d19f 96bc
00000240: 81d0 7bbc 82cd 55bc 4cf6 81bb c10a 0bbc
00000250: 31e5 543b 217b 213a 43a6 893b 9551 f13c
00000260: 753c 09bd eb91 673b eb65 96bc 1653 093f
00000270: 5a7d 34bc 9529 83ba a97e 973b a3de 35bc
00000280: 2b67 20bb 69bd 2f3c b40b 08ba 8c4b 733c
00000290: 5471 63bc 9fbb 19bb d229 11bd bad4 a63c
000002a0: 2a2a 2d3d fb17 ad3c b477 c13c cdaa 0fbc
000002b0: 055a e239 7af3 a33b 7f52 2f3c 27ef 9d3a
000002c0: 3e96 593c 6560 b9bc 409f 433d a0fb fdbb
000002d0: becd 463c f4c2 373c a8b0 0c3c 0593 b0bc
000002e0: 0eac 93bc ab73 0b3c 6ef3 193f 0c10 3fbc
000002f0: 0522 81bc 483c e03b e044 2f3c dd5e aa3c
00000300: f7c9 6e3c 5edc 01bc 3ffe 48bd e7ba b1bc
00000310: 1aff 3ebd aae2 76bc 750c c13c 2557 82bc
00000320: e833 c13b 6d2d 07bd 9666 7f3b 7c9d a0bb
00000330: ad4a 42bc 7ef6 adbc 52bd 6a3c 264b bebc
00000340: 4cc4 8e3c b40f 173b 192a 0ebb a102 88bc
00000350: 8afa 943c 183d 95bc f701 a93c 37ca 473c
00000360: 4a0e 883c 7f60 773d 4600 c7bb 5067 0c3c
00000370: a8b9 91bb add9 513c 9cb8 f637 1bef 67bc
00000380: f111 84bc 1188 42bc bbb7 e33b 1246 b5bc
00000390: 27ec 52bc f34e 90bc aecc 95bc d8ec 783b
000003a0: 369f 0dbc 9502 99bc b39b a7bc b7eb 99bc
000003b0: 34b5 babb 6233 2cbb 6704 8abc 5d7c 173c
000003c0: e69e 323c 923b af3c f6b9 65bb ea4a 3abc
000003d0: 41be bebc f88b 5fbc ce1b 1a3c 5d5b 42bb
000003e0: 1a3b 313f dac0 143a af6f d0ba b4c2 8a3c
000003f0: 3c36 173c 7e1e b93b 856b e0bc 99eb 35bc

network_architecture0.0.bias f4 [30]
0.76989794 0.5606494 -6.062401 1.7320772 -5.5063605 -0.87505317 -1.8528064 3.742168
-5.4573317 2.2482467 -0.18243605 2.3444865 2.8618338 0.6359763 -4.516686 -2.6703086
-1.7988988 0.30748433 -0.15925644 -0.36457503 0.6629295 -5.4355545 -1.398451 2.030881
-1.1773984 -0.8083618 1.4728788 -0.27878207 1.0015302 1.1012267
00000000: 0818 453f b886 0f3f 30ff c1c0 b5b4 dd3f
00000010: 1b34 b0c0 7c03 60bf c328 edbf ae7f 6f40
00000020: 76a2 aec0 46e3 0f40 84d0 3abe 110c 1640
00000030: 4928 3740 58cf 223f b188 90c0 56e6 2ac0
00000040: 5142 e6bf 966e 9d3e 1f14 23be 94a9 babe
00000050: bfb5 293f 10f0 adc0 7100 b3bf f4f9 0140
00000060: feb4 96bf cdf0 4ebf 4b87 bc3f 86bc 8ebe
00000070: 2432 803f fff4 8c3f

network_architecture0.1.weight f4 [64, 30]
0.16117929 -0.01787784 0.18124293 0.16674459 -0.04276655 -0.05786311 -0.15323591 -0.11785127
-0.1018711 0.17476173 0.0060161473 0.009731407 -0.17902954 -0.14214265 -0.15582742 -0.093990065
-0.04538596 -0.030048193 -0.035001576 0.15286295 0.0039569237 -0.11592584 -0.07310685 0.0071138744
0.14944571 0.12011892 -0.023405451 -0.00894519 -0.18156232 0.14789702 0.104787506 0.020600311
0.1525055 0.10553821 0.12315022 -0.09835746 -0.10952991 0.046508875 0.0091662 0.022913061
-0.14879629 0.0019377271 0.06843289 0.029380817 -0.12956572 -0.073345646 0.077743195 0.11617814
0.0874913 -0.10725066 0.12607276 0.12136311 0.010605646 0.1638466 -0.14950553 0.11128219
0.15789275 0.13955453 -0.12798738 -0.09414212 0.2023333 0.08599396 -0.027942792 0.023878016
-0.12098136 0.17082086 -0.19504794 0.15960643 0.12179573 -0.098565534 -0.08988035 0.043029044
-0.09814139 0.18028022 -0.115953095 -0.067377046 -0.19488126 -0.08672464 0.18007123 0.06745463
0.14823164 -0.10942857 -0.16880594 0.0014105317 0.0073964614 0.073155835 0.16529822 -0.07923085
0.16765268 0.08473304 -0.022000723 -0.032253217 -0.14820862 0.07683337 -0.11219089 -0.12994298
0.13142852 0.029085046 0.12789068 0.046404384 -0.09574965 -0.037571706 0.16035569 -0.0021617091
-0.1191439 -0.14352831 -0.10773124 -0.066402376 -0.061608188 0.12426822 0.17584708 -0.05909103
0.022281779 0.08179401 -0.160672 -0.025523683 -0.18321937 -0.12065749 0.1683535 -0.17187646
-0.0021474732 -0.09721689 -0.12542884 -0.010556702 -0.054994795 -0.07669364 -0.12690687 0.06318386
-0.16012742 0.16704287 0.14632474 0.0889427 -0.009912556 0.09763366 -0.1590129 -0.11491461
-0.07166783 -0.03969384 -0.08130861 -0.07906305 -0.0045320853 0.10506775 -0.063663244 0.1995552
-0.13803472 -0.0057227793 -0.18308395 -0.038627002 0.041559268 0.081014216 0.0029811345 -0.057673223
0.10327956 -0.13653508 -0.123413935 -0.15734878 0.10733491 0.035813563 -0.1529255 0.17462698
0.042775966 -0.102557704 -0.12978242 -0.14110346 0.15489568 -0.037904434 -0.20413874 -0.1241454
0.16172382 0.09045822 0.15226534 0.022050295 -0.131535 -0.11369318 0.07963864 -0.10914524
0.051126603 0.04553186 0.08941534 0.08068531 -0.06370325 -0.11280619 0.1595118 0.03141728
0.03915092 -0.060484532 -0.03608436 0.042621993 0.01862219 -0.14345707 -0.16999939 0.09871745
0.08931318 -0.096402965 -0.12206444 -0.0984696 -0.046311483 -0.14295621 -0.04199591 0.004981385
0.19630615 -0.03827232 0.02328907 -0.17862019 -0.1300038 -0.17339757 -0.1622977 0.01392778
0.07555224 0.09729056 -0.13047004 0.036573656 -0.045268215 0.06676873 -0.14084834 0.15862451
-0.15344216 -0.053446535 0.12601732 0.04727282 -0.09765249 0.119811594 0.06964058 0.078033924
-0.09498526 -0.064551204 0.13729249 0.062293563 0.07341819 0.020151256 0.17745733 -0.16654423
0.1271102 -0.045713637 0.0743434 -0.10097381 -0.13699028 -0.17837971 -0.057100445 0.1338192
0.06343697 0.15508844 0.1479991 0.15323123 -0.106688745 -0.05898823 -0.1767498 -0.112167984
-0.08433703 0.15933457 -0.056523267 -0.047211878 0.102310516 -0.087417796 -0.1599823 0.040736195
00000000: 2f0c 253e 8c74 92bc bf97 393e 18bf 2a3e
00000010: fa2b 2fbd de01 6dbd e0e9 1cbe 025c f1bd
00000020: cca1 d0bd bdf4 323e 1a23 c53b 7b70 1f3c
00000030: 8553 37be d88d 11be 3991 1fbe dd7d c0bd
00000040: a1e6 39bd a127 f6bc d05d 0fbd 1b88 1c3e
00000050: 15a9 813b 876a edbd 0bb9 95bd 811b e93b
00000060: 4c08 193e e900 f63d cabc bfbc d98e 12bc
00000070: 79eb 39be 5172 173e d59a d63d fcc1 a83c
00000080: 672a 1c3e 6b24 d83d 2f36 fc3d a36f c9bd
00000090: 3851 e0bd 1780 3e3d d42d 163c 2cb4 bb3c
000000a0: 0e5e 18be 55fb fd3a 8b26 8c3d 0ab0 f03c
000000b0: e0ac 04be 3e36 96bd d337 9f3d ceee ed3d
000000c0: a42e b33d 3ca6 dbbd 3819 013e 398d f83d
000000d0: 4ec3 2d3c 67c7 273e fa17 19be ebe7 e33d
000000e0: a3ae 213e 62e7 0e3e 200f 03be 95cd c0bd
000000f0: 7630 4f3e 9a1d b03d 48e8 e4bc d49b c33c
00000100: 13c5 f7bd aaeb 2e3e a6ba 47be de6f 233e
00000110: 0a70 f93d badc c9bd 3013 b8bd 393f 303d
00000120: 5afe c8bd 619b 383e d178 edbd fafc 89bd
00000130: f48e 47be b09c b1bd 9864 383e a725 8a3d
00000140: 09ca 173e 161c e0bd 77db 2cbe 97e1 b83a
00000150: 045e f23b bad2 953d f043 293e c943 a2bd
00000160: 25ad 2b3e 8488 ad3d dc3a b4bc f31b 04bd
00000170: 00c4 17be d05a 9d3d 56c4 e5bd c60f 05be
00000180: 3395 063e c343 ee3c c6f5 023e 8612 3e3d
00000190: 6418 c4bd cae4 19bd 4834 243e 76ab 0dbb
000001a0: b801 f4bd 16f9 12be 32a2 dcbd f8fd 87bd
000001b0: de58 7cbd 5680 fe3d 4211 343e 7009 72bd
000001c0: 4788 b63c 9e83 a73d 3387 24be 0b17 d1bc
000001d0: dc9d 3bbe 461b f7bd dc64 2c3e 6200 30be
000001e0: 9fbc 0cbb a619 c7bd 6b70 00be 04f6 2cbc
000001f0: 3942 61bd 8e11 9dbd e0f3 01be 8a66 813d
00000200: 71f8 23be 490d 2b3e 27d6 153e 9727 b63d
00000210: 4668 22bc 28f4 c73d 47d4 22be 5a58 ebbd
00000220: 95c6 92bd 0296 22bd 2185 a6bd cfeb a1bd
00000230: e381 94bb c32d d73d e061 82bd 3358 4c3e
00000240: f958 0dbe 2786 bbbb 5c7a 3bbe 5937 1ebd
00000250: 0d3a 2a3d c8ea a53d 235f 433b c23a 6cbd
00000260: 3c84 d33d dacf 0bbe 72c0 fcbd 0a20 21be
00000270: 68d2 db3d 3eb1 123d 8198 1cbe 6ad1 323e
00000280: da35 2f3d c609 d2bd afe5 04be 6d7d 10be
00000290: f99c 1e3e ae41 1bbd bf09 51be f23f febd
000002a0: ee9a 253e 2942 b93d 72eb 1b3e d2a2 b43c
000002b0: 1cb1 06be f8d7 e8bd 9519 a33d 8a87 dfbd
000002c0: 216a 513d 9e7f 3a3d 641f b73d 573e a53d
000002d0: d976 82bd ef06 e7bd 1057 233e 68af 003d
000002e0: b75c 203d a1be 77bd 32cd 13bd 6694 2e3d
000002f0: 908d 983c 69e6 12be 5214 2ebe 602c ca3d
00000300: d4e9 b63d eb6e c5bd ecfc f9bd 6eaa c9bd
00000310: 1cb1 3dbd 1d63 12be e703 2cbd e33a a33b
00000320: 7b04 493e 70c3 1cbd b8c8 be3c 36e8 36be
00000330: b71f 05be 228f 31be 5e31 26be 5831 643c
00000340: 22bb 9a3d 4640 c73d f099 05be 42ce 153d
00000350: 2a6b 39bd 0bbe 883d 8c3a 10be 776e 223e
00000360: f11f 1dbe c1ea 5abd af0a 013e 25a1 413d
00000370: 07fe c7bd c85f f53d b89f 8e3d 40d0 9f3d
00000380: a287 c2bd 6c33 84bd 6796 0c3e 8927 7f3d
00000390: 475c 963d 3f14 a53c 60b7 353e 928a 2abe
000003a0: 2d29 023e 393e 3bbd 5a41 983d 5bcb cebd
000003b0: 2e47 0cbe 2ca9 36be 28e2 69bd e607 093e
000003c0: 3eeb 813d 81cf 1e3e 138d 173e a6e8 1c3e
000003d0: a17f dabd a49d 71bd e6fd 34be 54b8 e5bd
000003e0: e5b8 acbd 9a28 233e f184 67bd 3e61 41bd
000003f0: 2d88 d13d 1a08 b3bd 66d2 23be ffda 263d

network_architecture0.1.bias f4 [64]
0.044676337 -0.037593782 0.17057388 0.040613446 0.087137304 -0.048154257 -0.070259646 0.20084605
-0.10205258 -0.061448663 0.15162912 -0.006528593 0.042600736 -0.013204177 0.048861515 0.06300464
-0.11358606 -0.15479434 0.15230463 0.073568314 0.09560731 0.022225108 0.099169075 0.01677223
-0.020026626 0.011301981 -0.045725442 0.06249594 0.2116847 0.029518398 -0.0963378 0.19903068
0.070478745 0.19424675 -0.12000913 -0.019877253 -0.09936525 -0.082718104 -0.1681126 0.19847448
0.056684744 0.012329538 -0.026143204 0.1320867 -0.024819614 -0.059199885 0.10722989 0.03049011
-0.0023842158 0.06541157 -0.056002468 -0.174814 0.1051131 0.16507894 0.19339222 -0.10208193
0.054918393 -0.058723494 -0.09858922 0.074913405 -0.04351535 -0.074245036 -0.17271018 0.014123988
00000000: 89fe 363d f0fb 19bd ebaa 2e3e 495a 263d
00000010: 0b75 b23d 663d 45bd 4ae4 8fbd 96aa 4d3e
00000020: f100 d1bd 98b1 7bbd aa44 1b3e cfed d5bb
00000030: 1c7e 2e3d 5556 58bc 0323 483d 9408 813d
00000040: cf9f e8bd 6882 1ebe bff5 1b3e fcaa 963d
00000050: c4cd c33d 6e11 b63c 2819 cb3d ea65 893c
00000060: e10e a4bc f22b 393c 9a4a 3bbd befb 7f3d
00000070: e0c3 583e 91d0 f13c c14c c5bd b3ce 4b3e
00000080: 2957 903d 9fe8 463e 59c7 f5bd 9fd5 a2bc
00000090: 0280 cbbd 1c68 a9bd b625 2cbe e53c 4b3e
000000a0: 432e 683d d501 4a3c 462a d6bc bc41 073e
000000b0: 8152 cbbc 947b 72bd 589b db3d 65c6 f93c
000000c0: 8140 1cbb 80f6 853d d862 65bd 7102 33be
000000d0: 8945 d73d 740a 293e 9c08 463e 5510 d1bd
000000e0: 1cf2 603d 0c88 70bd 25e9 c9bd 336c 993d
000000f0: 273d 32bd c80d 98bd f0da 30be 4d68 673c

network_architecture0.3.weight f4 [64, 64]
0.06746002 0.097841814 0.026522746 0.10747107 0.06572386 0.06626322 0.055895705 0.13366112
-0.08027235 -0.06959 -0.020025805 0.12320684 0.037601426 -0.09384178 -0.09269689 0.1059995
-0.0005897833 -0.019353103 -0.04309664 0.08241262 0.13682757 -0.01404627 0.02793446 0.08673011
-0.012927573 0.029971244 0.030348413 -0.007355469 -0.050892804 -0.09267627 -0.04631773 -0.06815839
0.1374762 0.12790538 0.14102489 0.016781764 0.12807739 -0.04987728 0.09176027 0.15319532
-0.01294191 0.12120314 0.11633567 -0.0042890767 0.025336718 0.17459229 0.007828757 0.094892554
-0.040760294 -0.058376055 -0.098150365 0.01935688 0.04021938 0.11963503 0.112502225 -0.06761695
-0.0832494 0.024816096 -0.026336178 -0.044575516 -0.080561094 -0.076593354 -0.08842919 0.09930363
-0.055802237 -0.06794605 -0.13204372 -0.016442666 0.029525237 0.11340381 0.027733544 0.041206993
0.08147846 -0.084999435 0.08933713 0.086288005 -0.10266905 0.12376295 -0.06893569 -0.07593301
0.05513102 0.077798195 0.098980844 -0.032310117 -0.04630423 0.09236124 0.07032986 0.066512495
0.09501378 0.008062939 -0.1367655 -0.073642366 0.039339762 -0.13098194 -0.0704712 -0.109168924
0.05708599 0.05619636 0.061071392 -0.075250015 -0.047599882 0.029660154 0.09353731 0.004302316
-0.08070451 0.07787863 -0.016759409 -0.01935931 0.023958625 -0.056591563 0.029887876 -0.08179098
0.06917175 0.083747394 0.11644713 -0.09498571 0.05367466 0.025048586 0.055443376 -0.062130857
0.09124141 -0.114481494 -0.102727525 0.011728779 0.112065844 0.06768203 -0.042805284 0.017721001
-0.089337766 -0.02617233 -0.08120299 -0.028595535 0.025254628 -0.09866115 -0.03588272 0.034843706
-0.066848986 0.10683792 -0.09833059 -0.04559007 0.04708327 -0.10029532 -0.051898316 0.052879218
0.12588535 -0.017308276 0.13078892 0.093725756 0.13103634 -0.08372801 -0.0963875 0.13195191
-0.09578483 0.10652551 0.09084652 -0.11425946 0.07509312 0.09127361 -0.08250364 0.03270308
0.04922406 -0.100787535 0.038088523 -0.10402078 -0.043028716 0.027173128 -0.08925308 0.01175023
0.09476693 0.038422193 -0.11195168 -0.043268695 0.07136951 0.06541042 -0.011710557 -0.012048122
-0.018304396 -0.09872769 0.014387113 -0.026927326 0.0077148583 0.11518935 -0.04592414 -0.13077223
0.04578063 0.05489187 -0.03239925 -0.0043325843 0.13136011 0.0137618175 -0.029150743 -0.053359833
-0.120829836 0.03018765 0.07836048 0.09640111 -0.07537731 -0.054549288 0.03280627 -0.018759785
-0.006808754 0.0030879474 0.09343556 0.14061876 -0.097253755 -0.013075908 0.10732898 -0.14307728
0.039469417 0.005045096 -0.10118436 -0.033790555 0.13052784 0.07113171 -0.07384424 0.0720039
0.08530319 0.046262115 -0.04575425 0.1269395 0.006761587 0.004270646 0.07724262 0.0072149932
-0.025778215 0.11076033 0.05525272 -0.08607869 0.00089382747 -0.10435551 0.039351363 0.014140688
-0.04132855 0.014688024 -0.0857129 0.098945916 -0.070631616 0.1007239 -0.046100687 -0.02964311
0.07396872 0.07618016 0.027422627 0.04114419 0.02427652 0.115343094 -0.08803483 0.10959628
-0.02173007 -0.014049559 -0.003769062 -0.09959058 -0.10007804 0.07794526 0.024139056 0.112056926
00000000: 7b28 8a3d 4a61 c83d 3b46 d93c cb19 dc3d
00000010: 3b9a 863d 03b5 873d e5f2 643d 76de 083e
00000020: d465 a4bd 3485 8ebd 280d a4bc de53 fc3d
00000030: f403 1a3d 1f30 c0bd ded7 bdbd 4416 d93d
00000040: b09b 1aba 668a 9ebc 1a86 30bd f3c7 a83d
00000050: 871c 0c3e 5422 66bc cfd6 e43c 8e9f b13d
00000060: 2cce 53bc 4186 f53c 3c9d f83c 2506 f1bb
00000070: f974 50bd 0ecd bdbd a9b7 3dbd a096 8bbd
00000080: 90c6 0c3e a1f9 023e d468 103e e979 893c
00000090: b826 033e 1e4c 4cbd cfec bb3d 3cdf 1c3e
000000a0: 4e0a 54bc 5a39 f83d 6541 ee3d 628b 8cbb
000000b0: f38e cf3c 52c8 323e 3044 003c 0757 c23d
000000c0: 44f4 26bd bb1b 6fbd 0f03 c9bd 5292 9e3c
000000d0: 14bd 243d 3603 f53d 9167 e63d c17a 8abd
000000e0: a97e aabd 204b cb3c f8be d7bc d194 36bd
000000f0: 37fd a4bd fadc 9cbd 5d1a b5bd b45f cb3d
00000100: e390 64bd 4c27 8bbd 7836 07be c5b2 86bc
00000110: e9de f13c 4240 e83d 7531 e33c aac8 283d
00000120: 2ede a63d 2f14 aebd 63f6 b63d c4b7 b03d
00000130: 2744 d2bd 6e77 fd3d 282e 8dbd c482 9bbd
00000140: 10d1 613d a954 9f3d 78b6 ca3d 9d57 04bd
00000150: 81a9 3dbd e427 bd3d 1a09 903d b437 883d
00000160: 9696 c23d 6b1a 043c 410c 0cbe cfd1 96bd
00000170: bb22 213d 2120 06be 3453 90bd f593 dfbd
00000180: 00d3 693d 282e 663d ff25 7a3d ae1c 9abd
00000190: 18f8 42bd daf9 f23c 7d90 bf3d 71fa 8c3b
000001a0: 6848 a5bd d57e 9f3d 074b 89bc 6a97 9ebc
000001b0: e144 c43c 8ecc 67bd 6bd7 f43c 0882 a7bd
000001c0: eba9 8d3d c183 ab3d d57b ee3d de87 c2bd
000001d0: f6d9 5b3d b132 cd3c 9818 633d ed7c 7ebd
000001e0: c7dc ba3d 4675 eabd cf62 d2bd 112a 403c
000001f0: c782 e53d e09c 8a3d 9854 2fbd a22b 913c
00000200: b8f6 b6bd 5b67 d6bc c14d a6bd 2f41 eabc
00000210: cbe2 ce3c db0e cabd c2f9 12bd 46b8 0e3d
00000220: 1fe8 88bd d7cd da3d 8c61 c9bd a7bc 3abd
00000230: 63da 403d a267 cdbd 5493 54bd e197 583d
00000240: 17e8 003e 16ca 8dbc 88ed 053e 4af3 bf3d
00000250: 642e 063e 9779 abbd cf66 c5bd 671e 073e
00000260: d62a c4bd 0c2a da3d be0d ba3d dd00 eabd
00000270: 6cca 993d a9ed ba3d abf7 a8bd aaf3 053d
00000280: 2b9f 493d b269 cebd b602 1c3d d908 d5bd
00000290: e13e 30bd 2e9a de3c 52ca b6bd 0984 403c
000002a0: 2a15 c23d 9760 1d3d ec46 e5bd 843a 31bd
000002b0: 2d2a 923d e6f5 853d a3dd 3fbc 7c65 45bc
000002c0: 1af3 95bc be31 cabd edb7 6b3c b296 dcbc
000002d0: eccc fc3b 65e8 eb3d f31a 3cbd 28e9 05be
000002e0: 7884 3b3d 4cd6 603d 13b5 04bd 5af8 8dbb
000002f0: 4483 063e 3f79 613c 8acd eebc d78f 5abd
00000300: a275 f7bd 174c f73c 767b a03d f26d c53d
00000310: 6b5f 9abd 136f 5fbd de5f 063d 1fae 99bc
00000320: f81b dfbb 295f 4a3b 255b bf3d 5dfe 0f3e
00000330: fa2c c7bd 553c 56bc 4ccf db3d da82 12be
00000340: afaa 213d 5551 a53b bf39 cfbd f767 0abd
00000350: 17a9 053e 81ad 913d a63b 97bd c876 933d
00000360: 70b3 ae3d 587d 3d3d cf68 3bbd 6efc 013e
00000370: 4e90 dd3b c6f0 8b3b 6131 9e3d c06b ec3b
00000380: d62c d3bc 50d6 e23d ad50 623d 064a b0bd
00000390: bf4f 6a3a 57b8 d5bd e52e 213d 58ae 673c
000003a0: 2048 29bd 0aa6 703c 3f8a afbd 28a4 ca3d
000003b0: 4fa7 90bd 5548 ce3d 13d4 3cbd 1cd6 f2bc
000003c0: ea7c 973d 5804 9c3d 6ba5 e03c cf86 283d
000003d0: 8ddf c63c 0039 ec3d 9b4b b4bd 0474 e03d
000003e0: 4203 b2bc 1f30 66bc 5e02 77bb 25f6 cbbd
000003f0: b7f5 ccbd c4a1 9f3d 45bf c53c 1a7e e53d

network_architecture0.3.bias f4 [64]
0.10256229 0.032372978 0.02632392 0.030030027 0.1075072 0.02799041 0.10201402 0.02624578
-0.02387472 0.050762597 0.05729343 0.10274586 -0.0059317905 -0.08668562 -0.061361242 -0.022408266
0.08479259 0.11433526 0.030803364 0.124287896 -0.10416131 0.0909964 0.07884162 0.016641054
-0.117974274 -0.107191436 0.07285775 0.05503738 -0.05756655 -0.09194854 0.1585121 0.10043635
0.039965943 0.06481018 0.16713347 -0.054519158 0.0045969216 0.061274547 0.0942568 0.16271065
0.07206184 -0.04453395 0.13552219 0.07939333 0.13233234 -0.066607974 0.18894248 0.049060497
0.060158275 -0.036282185 -0.044122465 -0.044497464 -0.12423917 0.07929092 0.017667644 0.11504855
0.06320926 0.044707306 -0.06516926 0.14568956 -0.07401523 -0.059501808 0.03664956 0.16312249
00000000: 2e0c d23d 8799 043d 43a5 d73c 8801 f63c
00000010: bc2c dc3d 254c e53c baec d03d 6401 d73c
00000020: eb94 c3bc 71ec 4f3d 84ac 6a3d 6c6c d23d
00000030: 775f c2bb 3b88 b1bd ed55 7bbd 8a91 b7bc
00000040: bda7 ad3d 9b28 ea3d 5657 fc3c a78a fe3d
00000050: 8652 d5bd 525c ba3d b777 a13d d252 883c
00000060: 7f9c f1bd 2f87 dbbd 7236 953d e06e 613d
00000070: e7ca 6bbd 844f bcbd ff50 223e 93b1 cd3d
00000080: 54b3 233d 33bb 843d 0925 2b3e 7b4f 5fbd
00000090: c6a1 963b 05fb 7a3d b609 c13d 9f9d 263e
000000a0: 2895 933d 3b69 36bd 54c6 0a3e f898 a23d
000000b0: 2182 073e c369 88bd 237a 413e a9f3 483d
000000c0: 8668 763d a19c 14bd c2b9 34bd f942 36bd
000000d0: 1b71 febd 4763 a23d bcbb 903c 939e eb3d
000000e0: db73 813d 021f 373d 7677 85bd a52f 153e
000000f0: 4c95 97bd 2bb8 73bd d91d 163d 9509 273e

network_architecture0.5.weight f4 [1, 64]
-0.13470103 0.0005675753 -0.015094781 -0.061151274 -0.057457127 -0.12025413 -0.06582461 0.10358075
0.021485755 -0.13700557 -0.14202516 -0.14529711 -0.03254165 0.05125917 -0.14283033 0.120758146
0.04475638 -0.12696631 -0.089423455 -0.08879896 0.09083041 -0.05634626 0.06612976 -0.014171407
0.06956272 0.09768043 0.10420132 -0.12063608 -0.060396396 -0.0053536324 -0.1233039 -0.16771667
-0.03209216 0.0051569208 -0.028925417 -0.085840955 -0.04673093 0.08818781 0.033390924 -0.11317323
-0.023498198 0.06256792 -0.13357961 0.115390584 -0.118782036 0.013624981 -0.025683992 0.03702393
-0.109885216 -0.14241165 0.012504597 -0.04479266 0.011539412 -0.05109984 -0.15355803 -0.073251046
-0.033743422 -0.040521473 0.10555352 -0.07504167 0.09700988 0.04428163 -0.020549612 -0.12025784
00000000: 11ef 09be 55c9 143a 1a50 77bc c279 7abd
00000010: 2a58 6bbd cc47 f6bd 0ecf 86bd 2522 d43d
00000020: e502 b03c 304b 0cbe 0b6f 11be c4c8 14be
00000030: 654a 05bd 23f5 513d 1d42 12be 0c50 f73d
00000040: 7752 373d 7503 02be a523 b7bd 3bdc b5bd
00000050: 4b05 ba3d 56cb 66bd 0a6f 873d 302f 68bc
00000060: e676 8e3d ad0c c83d 8067 d53d 0d10 f7bd
00000070: 3662 77bd 866d afbb c186 fcbd ebbd 2bbe
00000080: 1273 03bd 63fb a83b fff4 ecbc 62cd afbd
00000090: ef68 3fbd cf9b b43d ecc4 083d 5ec7 e7bd
000000a0: 4b7f c0bc 9c23 803d 18c9 08be e651 ec3d
000000b0: ff43 f3bd 503b 5f3c 3c67 d2bc 68a6 173d
000000c0: 800b e1bd 5cd4 11be 15e0 4c3c 8278 37bd
000000d0: cd0f 3d3c 114e 51bd 513e 1dbe a504 96bd
000000e0: 8b36 0abd d8f9 25bd 722c d83d 72af 99bd
000000f0: 1ead c63d a860 353d a957 a8bc be49 f6bd

exp_avg f4 [30, 30]
-0.028894683 0.0007843146 0.00015645796 -0.0027106083 0.00053507154 -0.000536388 -0.00047065038 0.0050128414
0.0007588953 3.2356216e-05 -0.0017514601 0.0005493039 0.0070733973 -0.009030662 0.0009913507 0.00029852174
0.0010101208 -0.0017297867 -0.0006123711 -2.0615787e-06 -0.020659663 -0.00037156095 -0.000473507 0.0013823594
-0.001355962 -0.0013146781 0.0069878194 0.00156649 0.0012365067 0.0060897255 0.004725146 0.00012193884
0.00030549278 -0.0009995438 0.00063923025 -4.854991e-05 0.0001779131 -0.0036491961 0.00081822724 -0.0004886008
-0.0004213287 -0.000364807 -0.0008059322 -0.0010604098 0.00048813416 0.0003169152 0.0002356474 -0.00057509734
0.00048097564 -6.89243e-05 -0.001307991 0.00080791255 0.00021193485 -0.0004092578 0.00034943956 -0.00010973072
0.00041106337 0.00036720006 0.00016441668 0.00048811638 0.074740775 -0.002963386 -7.22568e-05 0.00833887
-0.00080519734 0.0019685961 0.0020326318 -0.024590561 -0.0013382977 -0.0009100724 0.005911689 -0.0029543892
-0.02707854 0.02715829 -0.001920424 -0.00053239224 -0.0031143613 0.005911848 0.0022152283 -3.3952172e-05
0.06609282 0.0029905972 0.002318393 -0.0052060536 0.0054514273 0.005069157 -0.037889898 -0.0052287662
-0.0048565413 -0.021855151 -0.05964597 0.0030571981 0.0004539652 -0.009249838 0.0015741205 -0.0018206857
-0.0016805666 0.017843833 0.0022887923 0.00012127309 -0.006072084 0.0020842499 0.024305448 -0.026250266
0.0026081114 0.0010327096 0.003313635 -0.006249759 -0.0014532229 8.425048e-05 -0.06247807 -0.0018543489
-0.0017937399 0.0044521526 -0.0043395623 -0.0048599574 0.037209276 0.0051914686 0.004943344 0.021177508
0.08100484 -0.004455894 -4.6801473e-05 0.010951883 -0.0003203091 0.0026511955 0.0032260437 -0.03799686
-0.0010354914 -0.0017899242 0.007555561 -0.0035126556 -0.03924463 0.0356281 -0.00263902 -0.0003036253
-0.0040448844 0.007888877 0.0036912882 0.00013973584 0.08587132 0.0052628573 0.0028118542 -0.0081448695
0.0069811265 0.00588792 -0.06470096 -0.007079945 -0.0077232732 -0.03083524 -0.010054229 -0.0016457902
0.0003037955 0.0021695944 0.00067780237 0.00080528227 0.0012698928 -0.014578893 0.00043547855 -0.00090236275
0.0017992635 -0.0012763339 -0.011464682 0.0049256217 0.0002667281 0.0004472715 -0.0005959516 0.0017999354
0.0010318048 -5.2619474e-05 0.013880015 0.0023543693 0.00096148124 -0.0025389376 0.0016080462 0.0012727014
-0.031232232 -0.0013717172 -0.0028482983 -0.008312857 0.052105747 -0.0017054426 -0.00038813936 0.0063588414
-0.0015871233 0.0012120523 0.000857364 -0.008195648 -0.0020105133 0.00031036272 0.004166048 -0.0013973813
-0.014161801 0.01807752 -0.0019316216 -0.0008888715 -0.0022943914 0.004065016 0.00057521905 -0.00016990509
0.04327439 0.00036686208 0.0012148248 -0.0023383996 0.0029173542 0.0034652876 -0.016047915 -0.0033322922
-0.0026213627 -0.013011856 -0.004291754 0.0005730072 0.00013316944 -0.0011714501 -0.00030757245 -0.00018449654
-0.0004143295 0.0060990537 -0.00022898165 0.0005059401 -0.0005821845 1.8899591e-05 0.0059405137 -0.005119095
0.0005018217 3.3407803e-05 0.0005188184 -0.0011093578 -0.0008362648 -0.00040076475 -0.009973645 -0.001193375
-5.3755502e-05 0.0014458403 -0.00072187564 -0.00029297257 0.011413381 0.0012199283 0.0012250289 0.0043716594
0.012028857 -0.0007993599 -0.00013165304 0.0022100108 -0.0002718661 0.0003829397 0.0004155486 -0.0044589243
-0.00045288785 -7.809836e-05 0.0013567075 -0.00027210615 -0.0059690797 0.006359188 -0.00076029747 -0.00025400036
00000000: 8bb4 ecbc 769a 4d3a dd0e 2439 76a4 31bb
00000010: 0b44 0c3a 649c 0cba a0c1 f6b9 c342 a43b
00000020: 9af0 463a 39b6 0738 4091 e5ba 29ff 0f3a
00000030: f5c7 e73b 57f5 13bc 36f0 813a e982 9c39
00000040: 0866 843a 03ba e2ba 8787 20ba a759 0ab6
00000050: 743e a9bc 11ce c2b9 0941 f8b9 4930 b53a
00000060: 89ba b1ba 4751 acba 14fa e43b af52 cd3a
00000070: 4812 a23a 528c c73b 66d5 9a3b 6bb9 ff38
00000080: 8c2a a039 2003 83ba 0492 273a 12a2 4bb8
00000090: 2f8e 3a39 5a27 6fbb 4d7e 563a 7215 00ba
000000a0: c8e5 dcb9 9143 bfb9 3245 53ba 73fd 8aba
000000b0: 42ec ff39 a327 a639 1e18 7739 21c2 16ba
000000c0: 752b fc39 748b 90b8 e570 abba 18ca 533a
000000d0: d43a 5e39 a791 d6b9 fc34 b739 3b1f e6b8
000000e0: fe83 d739 c284 c039 4467 2c39 dfe9 ff39
000000f0: b111 993d 5e35 42bb 9388 97b8 c19f 083c
00000100: e113 53ba 9003 013b e735 053b 2572 c9bc
00000110: d269 afba ed91 6eba d7b6 c13b 6d9e 41bb
00000120: d0d3 ddbc 107b de3c bdb6 fbba 3d90 0bba
00000130: 501a 4cbb 2db8 c13b 5d2d 113b de67 0eb8
00000140: ac5b 873d e5fd 433b 2ef0 173b 8b97 aabb
00000150: e3a1 b23b 2c1b a63b 7032 1bbd 1256 abbb
00000160: 9f23 9fbb 9309 b3bc 554f 74bd 465b 483b
00000170: 2e02 ee39 a28c 17bc b852 ce3a 13a4 eeba
00000180: 7546 dcba 3b2d 923c 90ff 153b ff53 fe38
00000190: 55f8 c6bb e997 083b 381c c73c cc0a d7bc
000001a0: d9ec 2a3b fc5b 873a 9229 593b c7ca ccbb
000001b0: 127a beba a2af b038 01e9 7fbd a00d f3ba
000001c0: ec1b ebba 5de3 913b e332 8ebb 4740 9fbb
000001d0: c168 183d 321d aa3b c6fb a13b 747c ad3c
000001e0: dee5 a53d c002 92bb b34c 44b8 876f 333c
000001f0: 29ef a7b9 aebf 2d3b 086c 533b 98a2 1bbd
00000200: 53b9 87ba e49b eaba a494 f73b 9534 66bb
00000210: fabe 20bd c5ee 113d 69f3 2cbb e62f 9fb9
00000220: f38a 84bb 5940 013c 8ae9 713b 0e86 1239
00000230: 4ddd af3d 0c74 ac3b 1647 383b 0f72 05bc
00000240: efc1 e43b 74ef c03b f081 84bd e2fe e7bb
00000250: 8313 fdbb 2f9a fcbc 7eba 24bc 8eb7 d7ba
00000260: be46 9f39 c12f 0e3b 8cae 313a 9419 533a
00000270: 8872 a63a 4fdc 6ebc f150 e439 8a8c 6cba
00000280: 44d5 eb3a a94a a7ba 5dd6 3bbc 1c67 a13b
00000290: a4d7 8b39 c47f ea39 a339 1cba cfeb eb3a
000002a0: a03d 873a bbb3 5cb8 0169 633c c34b 1a3b
000002b0: ea0b 7c3a 4e64 26bb 14c5 d23a c6d0 a63a
000002c0: bdda ffbc 31cb b3ba 84aa 3abb a632 08bc
000002d0: d66c 553d 2889 dfba 2f7f cbb9 d45d d03b
000002e0: 0507 d0ba badd 9e3a b9c0 603a 0a47 06bc
000002f0: d1c2 03bb 2eb8 a239 5883 883b 5628 b7ba
00000300: e606 68bc 4f17 943c 772e fdba 2803 69ba
00000310: 805d 16bb d333 853b 4cca 163a 8d28 32b9
00000320: 7d40 313d 6557 c039 c23a 9f3a d63f 19bb
00000330: 1531 3f3b e119 633b eb76 83bc 9662 5abb
00000340: 2bcb 2bbb ae2f 55bc d8a1 8cbb dd35 163a
00000350: 66a3 0b39 588b 99ba ad41 a1b9 6a75 41b9
00000360: 5d3a d9b9 92da c73b cb1a 70b9 11a1 043a
00000370: be9d 18ba 908a 9e37 a4a8 c23b 15be a7bb
00000380: af8c 033a 5b1f 0c38 5001 083a df67 91ba
00000390: c838 5bba bc1d d2b9 8068 23bc 056b 9cba
000003a0: 8877 61b8 5a82 bd3a 413c 3dba 1d9a 99b9
000003b0: 31ff 3a3c 00e6 9f3a 2691 a03a 2340 8f3b
000003c0: af14 453c 238c 51ba 580c 0ab9 d4d5 103b
000003d0: 4089 8eb9 4cc5 c839 fddd d939 2b1c 92bb
000003e0: 9471 edb9 bdc8 a3b8 8dd3 b13a 78a9 8eb9
000003f0: 4598 c3bb bc60 d03b b34e 47ba 5a2b 85b9

exp_avg_sq f4 [30, 30]
0.032661412 4.931069e-05 5.638624e-06 0.00053937023 3.0240773e-05 6.360657e-05 5.7280336e-06 0.0035454563
0.00019361966 0.00021823963 0.00016851416 0.00030347542 0.002342468 0.003912184 0.00015871787 5.8411595e-05
8.408584e-05 9.325221e-05 0.00022046587 0.00021430799 0.015574679 0.00019957626 0.00045405905 0.00027096516
0.00080865 0.0016035379 0.008168603 0.0004051561 0.00042813612 0.0005321944 0.0056710076 4.7284534e-06
4.1406806e-06 0.000115963245 2.2596625e-05 1.6788283e-06 6.1861606e-06 0.001165687 2.4559225e-05 1.4622454e-05
1.0716111e-05 1.1103007e-05 0.00024178988 0.0005177274 2.16297e-05 6.16546e-06 3.4979134e-06 6.0243415e-06
1.3158677e-05 1.2912543e-05 0.0016305232 5.6600973e-05 1.0298295e-05 5.6669975e-05 4.007198e-05 5.6911493e-05
0.00402013 2.0404903e-05 3.5162415e-05 9.428757e-05 0.24348168 0.00076195865 0.00010294199 0.013053027
0.00030761998 0.00090050703 9.418986e-05 0.036635038 0.0026371372 0.0038417215 0.0029086361 0.004651389
0.035375006 0.069705054 0.0019738358 0.0009541387 0.0013213209 0.0017318471 0.003255456 0.0039984244
0.31989372 0.0026231578 0.0075252717 0.0061674337 0.015704261 0.030728772 0.124365225 0.0064380537
0.008744203 0.009138017 0.1264575 0.00055443874 0.00012790429 0.01380573 0.00019086692 0.0007201031
0.000112448666 0.018369725 0.0016120832 0.0028316197 0.0025806848 0.0032964398 0.02382071 0.061665792
0.0010789469 0.0007040611 0.0011115767 0.0014513858 0.0026114564 0.0032912397 0.29632986 0.0017386305
0.005982223 0.006787645 0.012630554 0.02706436 0.119915366 0.0060068043 0.008731136 0.008049827
0.30234578 0.0009085826 7.9121404e-05 0.013241797 0.00069973595 0.0013796091 0.00013260056 0.08509813
0.0044164304 0.0051409374 0.0038522864 0.007018287 0.05538603 0.07235577 0.003349986 0.0014405405
0.0019192497 0.0018825105 0.004565881 0.0044548507 0.33132693 0.0048678354 0.010503782 0.0065014884
0.018433813 0.037479315 0.14599352 0.008884337 0.009790355 0.011634533 0.014216957 3.92171e-05
8.226879e-06 0.00033422912 7.6149234e-05 7.326865e-05 1.9192783e-05 0.008436654 0.00027785334 0.0002189993
0.00016877029 0.00037295406 0.003135801 0.0019168964 0.00021913265 7.6324606e-05 8.815216e-05 4.974946e-05
0.00018523858 0.00013581356 0.007881749 0.0003561996 0.00048229264 0.00017251296 0.00062361255 0.0013147721
0.0118308235 0.00036536247 0.00029406406 0.0004775673 0.05936247 0.00021722593 7.8332516e-05 0.0053776405
4.3994332e-05 0.00026158904 6.787703e-05 0.0033865743 0.00042526817 0.0008728584 0.000942312 0.0011066088
0.005619277 0.025516137 0.00029868464 0.00017764111 0.0004197031 0.00052813435 0.0008375955 0.0012268071
0.11639627 0.000395179 0.0020709971 0.002878647 0.0043320563 0.010250855 0.058214065 0.0022880014
0.0038766386 0.0026268517 0.015247117 1.4892451e-05 3.6453935e-06 0.00011021159 2.776269e-05 1.3329036e-05
7.5969006e-06 0.002559746 5.956673e-05 6.7501904e-05 4.3740005e-05 6.4864136e-05 0.0009648774 0.0012024002
4.041455e-05 2.6790725e-05 1.6906732e-05 2.567689e-05 6.9107824e-05 6.916164e-05 0.0037484013 0.00011131988
8.313937e-05 5.9845435e-05 0.00019040219 0.00024176434 0.0065691527 7.840036e-05 7.349752e-05 0.00021356517
0.0046739043 2.250499e-05 5.419842e-06 0.00059977814 7.2203006e-06 4.542135e-05 3.161216e-06 0.0011410089
9.990474e-05 0.00013411391 0.00012954391 0.00021517865 0.0011356694 0.002678519 7.5712764e-05 3.020436e-05
00000000: f9c7 053d f3d2 4e38 6933 bd36 8664 0d3a
00000010: 91ad fd37 8464 8538 6f33 c036 e35a 683b
00000020: 6206 4b39 41d7 6439 2db3 3039 c81b 9f39
00000030: 1784 193b c731 803b 816d 2639 f9fe 7438
00000040: 3e57 b038 6690 c338 db2c 6739 ddb7 6039
00000050: f02c 7f3c 5845 5139 c60e ee39 5410 8e39
00000060: 95fb 533a ce2d d23a 9bd5 053c 226b d439
00000070: 7577 e039 f682 0b3a dcd3 b93b 1ba9 9e36
00000080: 2df0 8a36 4b31 f338 e28d bd37 1a54 e135
00000090: b792 cf36 f7c9 983a 8904 ce37 f652 7537
000000a0: 59c9 3337 0d47 3a37 fa88 7d39 19b8 073a
000000b0: 6d71 b537 e6e0 ce36 b2bd 6a36 b324 ca36
000000c0: 16c4 5c37 f3a2 5837 48b7 d53a d566 6d38
000000d0: d7c6 2c37 ecb0 6d38 f612 2838 40b4 6e38
000000e0: 4bbb 833b 322b ab37 5b7b 1338 41bc c538
000000f0: 4353 793e 2ebe 473a 8fe2 d738 5ddc 553c
00000100: 0e48 a139 0110 6c3a cc87 c538 9f0e 163d
00000110: d2d3 2c3b 64c5 7b3b d19e 3e3b ae6a 983b
00000120: 62e5 103d 86c1 8e3d 785b 013b 2a1f 7a3a
00000130: 2c30 ad3a 25ff e23a 7d59 553b 3705 833b
00000140: 1cc9 a33e 49e9 2b3b 8e96 f63b 2f18 ca3b
00000150: 39a6 803c e8ba fb3c 32b3 fe3d 4ff6 d23b
00000160: d843 0f3c 9fb7 153c 137e 013e c157 113a
00000170: 0c1e 0639 6e31 623c 7323 4839 4dc5 3c3a
00000180: 6bd2 eb38 1b7c 963c 894c d33a b292 393b
00000190: b520 293b 1509 583b a623 c33c 4595 7c3d
000001a0: 736b 8d3a be90 383a 53b2 913a 6d3c be3a
000001b0: f824 2b3b d7b1 573b 8cb8 973e c2e2 e33a
000001c0: 8606 c43b e56a de3b 62f0 4e3c 14b6 dd3c
000001d0: 3096 f53d bad4 c43b 0a0d 0f3c 6ce3 033c
000001e0: 11cd 9a3e f22d 6e3a fbed a538 1ff4 583c
000001f0: 7c6e 373a 00d4 b43a b10a 0b39 ee47 ae3d
00000200: b4b7 903b 4f75 a83b a476 7c3b a9f9 e53b
00000210: 76dc 623d 432f 943d 708b 5b3b 85d0 bc3a
00000220: 558f fb3a 92be f63a 639d 953b fff9 913b
00000230: afa3 a93e 5d82 9f3b 0e18 2c3c 700a d53b
00000240: 8202 973c e983 193d 537f 153e 9c8f 113c
00000250: ba67 203c c59e 3e3c 3dee 683c 0a7d 2438
00000260: 2d06 0a37 793b af39 4fb2 9f38 cfa7 9938
00000270: 3000 a137 e439 0a3c d8ac 9139 2da3 6539
00000280: eef7 3039 0c89 c339 0382 4d3b 5f40 fb3a
00000290: f9c6 6539 7610 a038 55de b838 13aa 5038
000002a0: 9a3c 4239 2d69 0e39 7422 013c 4dc0 ba39
000002b0: 39dc fc39 98e4 3439 ee79 233a 6e54 ac3a
000002c0: 12d6 413c 1f8e bf39 9c2c 9a39 ff61 fa39
000002d0: 1026 733d 24c7 6339 7346 a438 eb36 b03b
000002e0: 8e86 3838 e325 8939 3459 8e38 4af1 5d3b
000002f0: 87f6 de39 89d0 643a 7d05 773a a10b 913a
00000300: e921 b83b 3807 d13c c698 9c39 2c45 3a39
00000310: 990b dc39 7f72 0a3a 1592 5b3a d1cc a03a
00000320: 2b61 ee3d 0730 cf39 91b9 073b afa7 3c3b
00000330: ecf3 8d3b 34f3 273c df71 6e3d 4bf2 153b
00000340: 340f 7e3b 4227 2c3b 0bcf 793c 97da 7937
00000350: 62a3 7436 6621 e738 ece3 e837 c69f 5f37
00000360: e1e8 fe36 69c1 273b 4ad7 7938 cf8f 8d38
00000370: 7975 3738 ab07 8838 d4ef 7c3a db99 9d3a
00000380: cb82 2938 a5bc e037 eed2 8d37 b464 d737
00000390: fbed 9038 df0a 9138 bda7 753b 6874 e938
000003a0: 1c5b ae38 8c02 7b38 b3a6 4739 1f82 7d39
000003b0: 0c42 d73b df6a a438 ae22 9a38 77f0 5f39
000003c0: 8d27 993b 19c9 bc37 17dc b536 6e3a 1d3a
000003d0: e945 f236 ce82 3e38 4725 5436 e88d 953a
000003e0: f383 d138 eea0 0c39 2ed6 0739 94a1 6139
000003f0: beda 943a 188a 2f3b fbc7 9e38 5f5f fd37

exp_avg f4 [30]
-0.00011066543 -0.00012041351 0.00019155614 -0.00032460556 0.0001856717 -6.9642854e-05 0.0002782428 -8.923553e-06
7.1894014e-05 0.00012872124 7.579158e-05 -0.00010290609 -2.5699437e-05 -0.0003366236 0.00015463274 -5.3113795e-06
1.3699896e-05 -9.036652e-05 -0.00012366757 9.180934e-05 -5.8879086e-05 8.6770146e-05 -0.00021326318 9.7087264e-05
0.000102068465 -0.00015389461 0.00010481352 -6.9577845e-06 -0.00011314286 0.00013683428
00000000: 0d15 e8b8 8386 fcb8 76dc 4839 d22f aab9
00000010: deb0 4239 390d 92b8 1ee1 9139 5eb6 15b7
00000020: cec5 9638 58f9 0639 4bf2 9e38 49cf d7b8
00000030: 1f95 d7b7 db7c b0b9 e924 2239 6738 b2b6
00000040: 9bd8 6537 2883 bdb8 c3ac 01b9 c489 c038
00000050: f0f4 76b8 5ef8 b538 669f 5fb9 549b cb38
00000060: 970d d638 c55e 21b9 54cf db38 ea76 e9b6
00000070: 1c47 edb8 2c7b 0f39

exp_avg_sq f4 [30]
1.5639114e-07 6.023398e-07 1.2456607e-06 4.4016388e-06 2.323549e-06 1.160363e-06 3.459925e-06 3.89816e-07
1.2712023e-07 3.1692176e-07 2.7293007e-07 7.9026285e-07 1.6870341e-07 7.2254426e-07 1.9161369e-06 9.181885e-07
1.1808701e-06 9.898606e-07 6.4516655e-07 4.684471e-07 1.459802e-06 2.1915915e-07 3.9525794e-06 6.7443506e-07
2.5957397e-07 3.708571e-06 4.511008e-07 3.2182885e-07 7.2917186e-07 5.8872666e-07
00000000: 78ec 2734 7ab0 2135 9330 a735 cab1 9336
00000010: 45ee 1b36 c5bd 9b35 0f31 6836 e747 d134
00000020: 8b7e 0834 6525 aa34 3987 9234 7322 5435
00000030: d724 3534 ddf4 4135 fb96 0036 6f79 7635
00000040: 637e 9e35 5adb 8435 822f 2d35 e17e fb34
00000050: 6aee c335 0252 6b34 66a0 8436 d30a 3535
00000060: 935b 8b34 c4e0 7836 d22e f234 d2c7 ac34
00000070: 4fbc 4335 fd08 1e35

exp_avg f4 [64, 30]
0.00048366224 -0.000557862 -0.0025132985 0.0010705405 -0.0017328718 0.00017546379 -0.0002608085 0.00055720104
-0.0011874841 0.00038119007 -0.0001766856 0.0008943484 0.00068882067 0.00064159645 -0.0017319861 -0.0012041959
-0.0011559685 0.0005875977 0.00022274471 -0.0004432704 0.0006669778 -0.0015092067 -0.00017918985 4.9932764e-06
-0.0005367333 -0.00041139245 -8.3249804e-05 -0.0007589504 0.00050656183 -0.00032600228 -0.00013728206 0.00022128163
0.0007812388 -0.00048052293 0.0006126188 -7.662603e-05 0.000102641134 -0.00014913386 0.0005740742 -0.00019936991
-9.719752e-05 -0.00022304695 -0.0001604359 -0.00018198416 0.00056991895 0.00037878208 0.00037133924 -0.0003449551
-4.114337e-05 0.0001573358 -0.00023872161 0.00049921544 1.1306591e-05 -4.915252e-05 0.00012754365 -1.1625918e-05
3.3660883e-05 0.00020824047 -0.000106553016 0.00016004787 -0.0002495319 0.00046572275 0.0005517572 -0.0010278953
0.000466549 -0.0007737403 -0.00030951825 0.00073681487 0.00020836848 -0.00013552466 -0.00041242997 -4.2756277e-05
0.0006221325 -0.0003121632 0.0008127529 0.0003190392 0.0007605182 -0.0012742206 -0.0001701358 -5.605314e-05
-0.0008315313 -1.2891635e-05 -0.0004096807 0.0006648324 -0.00023647769 -0.0006328861 0.00027087072 0.0008345152
-5.2028907e-05 0.00091113464 -0.0008230738 0.0014547433 0.0015603778 -0.0028137267 0.001284767 -0.0023173457
-0.0010067497 0.0021757034 0.00028731936 -0.00024613563 -0.0009552523 -0.00015259547 0.0016393922 -0.0010101591
0.0022562037 0.00097075256 0.0022477189 -0.00328091 -0.0005809563 -0.00013546544 -0.0024458389 1.20488985e-05
-0.0011717516 0.0020139883 -0.0006589344 -0.0016311567 0.00076759886 0.0024656144 -0.0003500893 0.0025376522
-0.00017387072 0.00031290675 0.00036742873 -0.00070086424 0.00042465143 -0.0005012691 -0.00014807469 0.00043174755
0.00023394142 -9.624328e-05 -0.00029073664 -3.8364396e-05 0.00035362932 -0.00023925345 0.00050828437 0.00028051043
0.0005486765 -0.00084629183 -0.00012297473 -1.5872889e-05 -0.0005350958 0.00010479042 -0.00029180525 0.00038156737
-0.00011545085 -0.0004605124 0.00017682894 0.0005395209 -7.357761e-05 0.00058800913 -8.930799e-05 0.00023132468
-8.470426e-05 -0.0004838902 -0.000967534 -0.00081651437 -0.0005821259 0.001344964 -0.0009891738 0.00028613262
-8.8924186e-05 3.7214028e-05 0.0011595234 -0.000118856326 0.0003285957 -0.00035764635 0.00028106014 -0.0010303286
-0.00022823407 -0.00046995468 -0.0007322088 -0.001249756 -0.00031594606 0.0012430365 -0.00050694105 -0.00036719308
0.00029799942 0.00081334997 0.0001186741 0.00093525107 0.0002516345 -0.00053080684 -0.00019703255 0.00087366253
-0.00022806521 0.00089806423 0.0005177532 -0.0008982583 7.4481846e-05 1.6454098e-06 0.00033461486 -6.668214e-05
-0.000710273 0.00029586357 -0.0006153465 -0.00015435631 -0.0006581246 0.001071513 0.00020483891 0.0001358326
0.0008246967 0.0001930862 0.00047187225 -0.0008182317 0.0003246136 0.00062063755 -0.00026007148 -0.0008382825
7.884827e-05 -0.00089270587 -0.0005380565 0.00092658424 0.0015767199 -0.002208664 0.0012489979 -0.0014958676
-0.00045705447 0.0012900038 0.0007406127 -0.00034462186 -0.00081248564 -0.00026287403 0.0011044862 -0.00070366
0.0018548382 0.0008463466 0.0016507885 -0.0027089454 -0.0003458273 -7.9161495e-05 -0.0017016986 0.00025519123
-0.00076826464 0.0012312208 -0.00035437918 -0.0012155046 0.00054220884 0.0017545805 -0.0001600912 0.0018341077
0.00029781743 -0.00025686616 -0.0004861122 -0.00047889023 -0.0005065097 -0.00021554163 8.66512e-05 0.00068117346
0.00036836413 -0.00015912803 -0.0007815366 0.00029279833 0.00112999 0.0002852014 -0.00011209598 -0.0003871541
00000000: 0c94 fd39 7c3d 12ba 27b6 24bb 6151 8c3a
00000010: 8721 e3ba b4fc 3739 20bd 88b9 2111 123a
00000020: 5ba5 9bba 77da c739 ae44 39b9 b572 6a3a
00000030: f991 343a cf30 283a cf03 e3ba 1cd6 9dba
00000040: de83 97ba 0409 1a3a 9490 6939 bf66 e8b9
00000050: 1fd8 2e3a 93d0 c5ba e9e4 3bb9 eb8b a736
00000060: 90b3 0cba 29b0 d7b9 6696 aeb8 4df4 46ba
00000070: caca 043a 49eb aab9 5ff3 0fb9 d607 6839
00000080: 0ccc 4c3a b2ee fbb9 2798 203a 49b2 a0b8
00000090: 0a41 d738 d160 1cb9 787d 163a f40d 51b9
000000a0: 85d6 cbb8 b6e1 69b9 af3a 28b9 00d3 3eb9
000000b0: 9d66 153a 4597 c639 4fb0 c239 17db b4b9
000000c0: 5b91 2cb8 82fa 2439 5851 7ab9 c8dd 023a
000000d0: 70b1 3d37 1e29 4eb8 3dbd 0539 f00c 43b7
000000e0: 192f 0d38 205b 5a39 3775 dfb8 86d2 2739
000000f0: 9bd3 82b9 402c f439 cda3 103a 71ba 86ba
00000100: 269b f439 d5d4 4aba d646 a2b9 cf26 413a
00000110: 7d7d 5a39 a01b 0eb9 6a3b d8b9 3455 33b8
00000120: 9b16 233a d6a9 a3b9 ed0e 553a b744 a739
00000130: 835d 473a c003 a7ba 7b66 32b9 9a1a 6bb8
00000140: 1ffb 59ba 2749 58b7 6aca d6b9 2648 2e3a
00000150: fff6 77b9 44e8 25ba a703 8e39 5ec3 5a3a
00000160: 9d39 5ab8 36d9 6e3a 8cc3 57ba 16ad be3a
00000170: 9785 cc3a 8066 38bb a065 a83a 9cde 17bb
00000180: eaf4 83ba 3f96 0e3b 5aa3 9639 c40b 81b9
00000190: e669 7aba 0902 20b9 e0e0 d63a 5167 84ba
000001a0: d1dc 133b 1a7a 7e3a 774e 133b 8904 57bb
000001b0: 514b 18ba ba0b 0eb9 5e4a 20bb a025 4a37
000001c0: 7695 99ba 1efd 033b 57bc 2cba 89cc d5ba
000001d0: b038 493a 2596 213b 318c b7b9 bd4e 263b
000001e0: 1151 36b9 a20d a439 73a3 c039 34ba 37ba
000001f0: c0a3 de39 9a67 03ba 7f44 1bb9 2d5c e239
00000200: 2c4e 7539 38d6 c9b8 036e 98b9 75e9 20b8
00000210: 5367 b939 1ce0 7ab9 633e 053a 7911 9339
00000220: 0ed5 0f3a afd9 5dba c7f2 00b9 c526 85b7
00000230: ac45 0cba eec2 db38 70fd 98b9 1b0d c839
00000240: 341e f2b8 ee70 f1b9 286b 3939 a26e 0d3a
00000250: ae4d 9ab8 a024 1a3a dd4a bbb8 bf8f 7239
00000260: 41a3 b1b8 a5b2 fdb9 1ca2 7dba 5a0b 56ba
00000270: cf99 18ba 8149 b03a 2aa7 81ba 1204 9639
00000280: cf7c bab8 4216 1c38 26fb 973a 8142 f9b8
00000290: 5e47 ac39 7b82 bbb9 415b 9339 170c 87ba
000002a0: 1e52 6fb9 4064 f6b9 b3f1 3fba dace a3ba
000002b0: 90a5 a5b9 62ed a23a 3de4 04ba d283 c0b9
000002c0: ce3c 9c39 fe36 553a ace0 f838 a32b 753a
000002d0: d0ed 8339 d825 0bba 869a 4eb9 8006 653a
000002e0: ca24 6fb9 126c 6b3a d4b9 073a 1879 6bba
000002f0: 2333 9c38 dad7 dc35 3f6f af39 b4d7 8bb8
00000300: 9d31 3aba 231e 9b39 344f 21ba b5da 21b9
00000310: ff85 2cba 0372 8c3a 07ca 5639 496e 0e39
00000320: 7530 583a 2f77 4a39 9f65 f739 9a7e 56ba
00000330: e630 aa39 48b2 223a 345a 88b9 30c0 5bba
00000340: 585b a538 7a04 6aba 5c0c 0dba 04e6 723a
00000350: f1a9 ce3a 3cbf 10bb 6ab5 a33a fd10 c4ba
00000360: d0a0 efb9 5815 a93a ad25 423a 5dae b4b9
00000370: fdfc 54ba 5bd2 89b9 68c4 903a d375 38ba
00000380: 0b1e f33a 5cdd 5d3a 455f d83a 9088 31bb
00000390: 2850 b5b9 8103 a6b8 880b dfba 30cb 8539
000003a0: 5e65 49ba ea60 a13a f8cb b9b9 9151 9fba
000003b0: 0523 0e3a f4f9 e53a 27de 27b9 7166 f03a
000003c0: 6124 9c39 feab 86b9 e0dc feb9 8f13 fbb9
000003d0: 4ac7 04ba 0403 62b9 82b8 b538 c790 323a
000003e0: ff20 c139 9bdb 26b9 09e0 4cba ba82 9939
000003f0: 2c1c 943a 1587 9539 1215 ebb8 f2fa cab9
